microwakeword/hey_luna.tflite (tflite, 63544 bytes, 18 tensors)

tfl.pseudo_qconst1 i1 [1, 2368] scale=0.0054512476 zero_point=0
-0.1035737 -0.27256238 0.10902495 -0.1035737 -0.26711112 0.049061228 -0.10902495 -0.13628119
-0.15808618 0.07086622 -0.25620863 0.21259865 -0.081768714 -0.07631747 0.2071474 0.1035737
-0.22350115 0.0 0.032707486 -0.1035737 0.30526987 -0.027256237 -0.19079366 -0.054512475
-0.3325261 -0.010902495 0.027256237 -0.02180499 0.1035737 -0.05996372 0.04360998 -0.016353743
-0.2289524 0.0 -0.13082995 -0.1144762 -0.21259865 -0.10902495 0.027256237 0.016353743
0.0 0.027256237 0.17989117 -0.05996372 -0.07086622 -0.054512475 -0.027256237 -0.08721996
0.17443992 -0.07631747 -0.17443992 -0.098122455 0.05996372 -0.14173244 -0.15808618 -0.081768714
-0.09267121 -0.29436737 -0.13628119 -0.0054512476 -0.098122455 -0.15808618 -0.05996372 0.1144762
0.0054512476 -0.17443992 0.1253787 -0.07086622 -0.1253787 0.010902495 -0.049061228 -0.02180499
-0.1035737 0.21259865 -0.09267121 0.20169616 0.0 0.0 0.13082995 0.1035737
-0.1253787 0.0054512476 0.010902495 -0.081768714 0.2616599 0.02180499 -0.032707486 -0.09267121
-0.2180499 -0.016353743 0.14173244 -0.038158733 0.06541497 -0.081768714 0.14718369 0.054512475
-0.10902495 -0.0054512476 0.04360998 0.0 -0.081768714 0.016353743 0.016353743 -0.05996372
-0.02180499 0.054512475 0.08721996 -0.02180499 -0.016353743 0.032707486 0.010902495 -0.032707486
0.16353743 -0.1035737 -0.10902495 -0.010902495 0.09267121 -0.14718369 -0.04360998 -0.027256237
-0.06541497 -0.13082995 -0.081768714 -0.054512475 -0.06541497 -0.10902495 0.02180499 0.14718369
-0.032707486 -0.098122455 0.038158733 0.02180499 -0.098122455 0.010902495 -0.0054512476 0.049061228
-0.05996372 0.22350115 -0.10902495 0.15808618 0.038158733 -0.0054512476 0.054512475 0.11992744
-0.05996372 0.1035737 0.0 -0.010902495 0.15263493 0.010902495 0.05996372 -0.09267121
-0.17443992 -0.054512475 0.032707486 -0.02180499 -0.02180499 0.049061228 0.1253787 0.05996372
-0.032707486 0.02180499 -0.0054512476 0.049061228 0.02180499 -0.010902495 0.038158733 -0.049061228
0.032707486 0.06541497 0.08721996 0.08721996 -0.027256237 0.054512475 0.032707486 -0.05996372
0.1253787 -0.07086622 -0.07631747 -0.027256237 0.1035737 -0.07086622 -0.016353743 -0.05996372
0.0 -0.14718369 0.0 -0.10902495 -0.06541497 -0.010902495 -0.0054512476 0.13628119
-0.05996372 -0.15808618 0.07086622 0.05996372 -0.098122455 -0.010902495 0.038158733 0.098122455
-0.02180499 0.2071474 -0.14718369 0.2071474 0.0054512476 0.02180499 -0.06541497 0.010902495
0.0054512476 0.06541497 -0.0054512476 -0.0054512476 0.13628119 0.0054512476 -0.054512475 -0.10902495
-0.02180499 -0.11992744 0.054512475 -0.09267121 0.0 -0.07631747 0.027256237 0.027256237
0.05996372 -0.0054512476 0.0054512476 0.054512475 0.027256237 -0.038158733 -0.08721996 -0.10902495
0.0054512476 0.054512475 -0.038158733 0.032707486 -0.0054512476 -0.016353743 -0.027256237 -0.04360998
0.081768714 -0.010902495 0.0054512476 -0.02180499 0.0054512476 -0.11992744 0.0 -0.038158733
-0.04360998 -0.18534242 -0.07086622 -0.098122455 0.016353743 0.016353743 -0.07631747 0.10902495
00000000: edce 14ed cf09 ece7 e30d d127 f1f2 2613
00000010: d700 06ed 38fb ddf6 c3fe 05fc 13f5 08fd
00000020: d600 e8eb d9ec 0503 0005 21f5 f3f6 fbf0
00000030: 20f2 e0ee 0be6 e3f1 efca e7ff eee3 f515
00000040: 01e0 17f3 e902 f7fc ed27 ef25 0000 1813
00000050: e901 02f1 3004 faef d8fd 1af9 0cf1 1b0a
00000060: ecff 0800 f103 03f5 fc0a 10fc fd06 02fa
00000070: 1eed ecfe 11e5 f8fb f4e8 f1f6 f4ec 041b
00000080: faee 0704 ee02 ff09 f529 ec1d 07ff 0a16
00000090: f513 00fe 1c02 0bef e0f6 06fc fc09 170b
000000a0: fa04 ff09 04fe 07f7 060c 1010 fb0a 06f5
000000b0: 17f3 f2fb 13f3 fdf5 00e5 00ec f4fe ff19
000000c0: f5e3 0d0b eefe 0712 fc26 e526 0104 f402
000000d0: 010c ffff 1901 f6ec fcea 0aef 00f2 0505
000000e0: 0bff 010a 05f9 f0ec 010a f906 fffd fbf8
000000f0: 0ffe 01fc 01ea 00f9 f8de f3ee 0303 f214

tfl.pseudo_qconst3 i1 [64, 1, 1, 64]
33 17 48 -38 -4 29 -67 54
76 101 7 63 11 12 -14 18
-11 51 -3 -38 -9 37 -4 17
78 -3 53 30 27 -30 32 -18
-43 127 -29 0 64 -59 16 -54
-37 4 -8 -3 1 -6 14 27
9 -44 14 53 89 -20 -7 -2
-22 55 2 95 -9 20 -3 93
-11 -40 13 -127 -23 61 -19 -22
34 -61 -9 0 -16 45 60 -22
-37 51 98 -37 26 49 -1 0
-25 -43 -10 13 -10 9 12 10
56 43 -43 -14 6 72 35 31
-15 35 0 -18 55 -6 -77 -109
21 -7 1 -11 -13 -38 -52 43
12 2 62 -71 -8 -37 30 -7
29 16 14 -79 -11 11 -89 98
23 -54 -73 -65 22 126 127 73
-46 92 7 7 -105 -11 29 84
66 -26 76 -48 62 -67 -3 51
80 121 55 -80 20 -65 -39 -31
27 13 25 -53 2 43 -46 87
-81 91 -56 31 -63 65 -24 57
-48 46 32 39 3 34 -46 -51
36 23 -79 43 38 42 -22 68
19 27 -50 3 32 107 24 33
-30 61 96 33 5 -38 -39 -78
30 -50 -14 29 -43 -33 29 -60
-69 95 -36 -4 35 3 66 -72
-59 9 56 10 34 -42 -27 9
45 29 -58 49 -47 127 -43 -32
53 63 -50 -83 12 41 -2 53
00000000: 2111 30da fc1d bd36 4c65 073f 0b0c f212
00000010: f533 fdda f725 fc11 4efd 351e 1be2 20ee
00000020: d57f e300 40c5 10ca db04 f8fd 01fa 0e1b
00000030: 09d4 0e35 59ec f9fe ea37 025f f714 fd5d
00000040: f5d8 0d81 e93d edea 22c3 f700 f02d 3cea
00000050: db33 62db 1a31 ff00 e7d5 f60d f609 0c0a
00000060: 382b d5f2 0648 231f f123 00ee 37fa b393
00000070: 15f9 01f5 f3da cc2b 0c02 3eb9 f8db 1ef9
00000080: 1d10 0eb1 f50b a762 17ca b7bf 167e 7f49
00000090: d25c 0707 97f5 1d54 42e6 4cd0 3ebd fd33
000000a0: 5079 37b0 14bf d9e1 1b0d 19cb 022b d257
000000b0: af5b c81f c141 e839 d02e 2027 0322 d2cd
000000c0: 2417 b12b 262a ea44 131b ce03 206b 1821
000000d0: e23d 6021 05da d9b2 1ece f21d d5df 1dc4
000000e0: bb5f dcfc 2303 42b8 c509 380a 22d6 e509
000000f0: 2d1d c631 d17f d5e0 353f cead 0c29 fe35

tfl.pseudo_qconst5 i1 [1, 23, 1, 64]
67 103 88 -82 99 -71 72 93
34 -127 58 -48 -8 19 -127 -39
-43 -41 -127 -45 103 127 -6 27
-127 127 -73 7 -24 11 -42 -39
91 -127 -4 30 -127 61 114 -119
-70 45 92 127 -127 81 -111 -127
-78 -127 -2 63 22 -76 122 -15
105 127 27 -125 96 -78 -127 127
15 104 21 -92 127 -64 74 52
22 -71 64 -65 -43 32 -127 -22
-10 -57 -102 -24 26 87 -3 27
-90 102 -82 -12 -11 -18 -19 5
80 -74 7 65 -104 51 101 -126
-64 88 19 113 -89 127 -127 -86
-66 -92 -54 30 41 -99 99 -23
127 98 40 -127 46 -91 -86 109
68 127 -54 -104 27 -27 29 38
52 -60 14 -56 -62 51 -83 -26
0 -33 -103 -28 35 98 -20 14
-67 88 -76 -52 -20 11 49 89
68 -88 4 72 -66 54 127 -127
-19 106 -71 78 -69 100 -106 -26
-45 -88 -94 30 4 -70 127 -1
100 84 32 -115 -43 -106 -39 49
64 86 -102 -111 -14 -26 37 6
84 -28 13 -62 -24 67 -89 -10
-9 -52 -64 -20 31 49 -7 -1
-19 81 -73 -25 -19 3 71 109
60 -55 2 91 -21 -3 116 -80
-66 67 -127 89 -43 104 -124 2
-56 -99 -88 57 21 -46 110 -26
48 52 12 -71 -74 -79 4 19
00000000: 4367 58ae 63b9 485d 2281 3ad0 f813 81d9
00000010: d5d7 81d3 677f fa1b 817f b707 e80b d6d9
00000020: 5b81 fc1e 813d 7289 ba2d 5c7f 8151 9181
00000030: b281 fe3f 16b4 7af1 697f 1b83 60b2 817f
00000040: 0f68 15a4 7fc0 4a34 16b9 40bf d520 81ea
00000050: f6c7 9ae8 1a57 fd1b a666 aef4 f5ee ed05
00000060: 50b6 0741 9833 6582 c058 1371 a77f 81aa
00000070: bea4 ca1e 299d 63e9 7f62 2881 2ea5 aa6d
00000080: 447f ca98 1be5 1d26 34c4 0ec8 c233 ade6
00000090: 00df 99e4 2362 ec0e bd58 b4cc ec0b 3159
000000a0: 44a8 0448 be36 7f81 ed6a b94e bb64 96e6
000000b0: d3a8 a21e 04ba 7fff 6454 208d d596 d931
000000c0: 4056 9a91 f2e6 2506 54e4 0dc2 e843 a7f6
000000d0: f7cc c0ec 1f31 f9ff ed51 b7e7 ed03 476d
000000e0: 3cc9 025b ebfd 74b0 be43 8159 d568 8402
000000f0: c89d a839 15d2 6ee6 3034 0cb9 b6b1 0413

tfl.pseudo_qconst7 i1 [64, 1, 1, 64]
71 81 16 100 -39 33 -79 67
65 44 63 19 71 82 -1 -51
-7 23 -14 -49 -14 -82 67 -10
-115 45 47 -32 -4 -58 14 -22
39 29 17 -61 -41 48 -127 21
-105 15 71 38 -80 -70 34 34
-21 -14 -88 -33 -96 -9 26 -23
6 -91 45 89 -85 -43 -103 48
-119 41 -20 17 22 -52 54 69
-38 51 46 18 -1 12 63 6
78 39 -37 38 127 15 21 38
-76 6 -8 -32 -51 -57 9 -1
-46 -77 -6 -74 -11 82 -61 70
-46 39 2 12 42 -66 19 38
72 -86 -16 -15 -99 29 57 -55
55 -52 46 72 60 -30 56 21
-21 52 -1 13 -27 -35 -39 5
12 107 47 68 -25 52 -27 -22
-43 -62 -25 0 39 45 -44 -43
-50 90 69 65 93 -79 -37 -9
23 59 17 -51 -20 26 -20 -17
-47 -9 24 57 10 54 -2 -3
-25 -26 115 -69 -6 32 34 -24
83 -25 -18 79 -9 -14 -127 110
-33 -23 -40 12 10 -2 -59 15
21 45 110 50 6 -25 -31 14
-16 57 -29 54 12 25 37 -71
-7 53 -29 38 127 -5 44 19
38 21 14 39 -9 6 -21 47
-64 -31 -4 54 -16 -12 -30 -2
-8 -35 7 14 -5 87 -31 -4
57 -29 25 9 -35 5 -15 63
00000000: 4751 1064 d921 b143 412c 3f13 4752 ffcd
00000010: f917 f2cf f2ae 43f6 8d2d 2fe0 fcc6 0eea
00000020: 271d 11c3 d730 8115 970f 4726 b0ba 2222
00000030: ebf2 a8df a0f7 1ae9 06a5 2d59 abd5 9930
00000040: 8929 ec11 16cc 3645 da33 2e12 ff0c 3f06
00000050: 4e27 db26 7f0f 1526 b406 f8e0 cdc7 09ff
00000060: d2b3 fab6 f552 c346 d227 020c 2abe 1326
00000070: 48aa f0f1 9d1d 39c9 37cc 2e48 3ce2 3815
00000080: eb34 ff0d e5dd d905 0c6b 2f44 e734 e5ea
00000090: d5c2 e700 272d d4d5 ce5a 4541 5db1 dbf7
000000a0: 173b 11cd ec1a ecef d1f7 1839 0a36 fefd
000000b0: e7e6 73bb fa20 22e8 53e7 ee4f f7f2 816e
000000c0: dfe9 d80c 0afe c50f 152d 6e32 06e7 e10e
000000d0: f039 e336 0c19 25b9 f935 e326 7ffb 2c13
000000e0: 2615 0e27 f706 eb2f c0e1 fc36 f0f4 e2fe
000000f0: f8dd 070e fb57 e1fc 39e3 1909 dd05 f13f

tfl.pseudo_qconst9 i1 [1, 15, 1, 32]
-3 -127 71 65 -7 -115 -127 23
-81 127 -127 54 76 86 127 -127
-21 -45 -6 127 46 85 1 127
127 0 -127 -18 127 20 111 85
22 -99 120 126 112 -127 -67 -58
-101 81 -101 127 70 92 116 -116
-66 -51 -11 24 84 39 88 70
90 56 11 -19 21 12 52 60
-127 -36 127 127 -127 -114 -24 -21
-127 95 -64 48 51 60 122 17
-113 5 42 47 127 15 -13 109
73 -11 -62 -41 -16 -6 -22 8
-49 -25 78 104 -11 -98 -49 -41
-96 82 -42 7 71 81 24 -69
-101 27 22 2 125 116 52 42
49 43 -7 -31 31 35 -48 -14
-52 -20 88 15 -63 -47 -6 -10
-24 -10 -45 -83 53 84 85 -6
-127 59 15 36 101 57 -13 14
27 -20 96 -62 2 -5 -67 115
72 -24 -9 -75 -16 -33 -24 54
-60 -43 27 -45 26 127 71 47
-9 63 -57 25 52 127 63 45
35 30 -9 -8 -35 39 -124 33
95 -11 -31 -5 18 -13 17 127
-9 -43 22 -102 39 101 -9 91
-70 31 -32 3 11 126 9 25
-8 17 112 -30 22 3 -67 98
75 12 -27 -33 -64 -17 -5 127
49 -27 63 -51 25 88 17 61
-8 7 -70 20 28 6 9 19
21 9 6 -31 -40 13 -30 115
00000000: fd81 4741 f98d 8117 af7f 8136 4c56 7f81
00000010: ebd3 fa7f 2e55 017f 7f00 81ee 7f14 6f55
00000020: 169d 787e 7081 bdc6 9b51 9b7f 465c 748c
00000030: becd f518 5427 5846 5a38 0bed 150c 343c
00000040: 81dc 7f7f 818e e8eb 815f c030 333c 7a11
00000050: 8f05 2a2f 7f0f f36d 49f5 c2d7 f0fa ea08
00000060: cfe7 4e68 f59e cfd7 a052 d607 4751 18bb
00000070: 9b1b 1602 7d74 342a 312b f9e1 1f23 d0f2
00000080: ccec 580f c1d1 faf6 e8f6 d3ad 3554 55fa
00000090: 813b 0f24 6539 f30e 1bec 60c2 02fb bd73
000000a0: 48e8 f7b5 f0df e836 c4d5 1bd3 1a7f 472f
000000b0: f73f c719 347f 3f2d 231e f7f8 dd27 8421
000000c0: 5ff5 e1fb 12f3 117f f7d5 169a 2765 f75b
000000d0: ba1f e003 0b7e 0919 f811 70e2 1603 bd62
000000e0: 4b0c e5df c0ef fb7f 31e5 3fcd 1958 113d
000000f0: f807 ba14 1c06 0913 1509 06e1 d80d e273

tfl.pseudo_qconst11 i1 [1, 9, 1, 32]
127 -55 21 85 17 23 -126 0
85 -64 -35 20 0 -41 -31 -81
-17 64 116 24 -95 14 -51 109
78 -4 64 108 -6 -38 -9 101
67 -39 -12 88 110 -30 -106 65
127 -70 -1 42 -54 -90 -55 27
16 108 -3 -57 -56 -4 17 80
71 93 3 31 -33 -53 122 127
57 15 33 84 -5 -70 -126 63
79 -3 9 -111 -22 -82 1 38
14 110 45 -74 -72 -18 -3 -28
96 12 127 -42 1 -13 24 15
101 -3 -3 88 77 -29 -84 23
1 -40 48 -127 103 11 -49 127
-17 94 5 64 -30 -7 1 -88
7 34 105 -127 70 -26 117 -1
76 -47 55 11 61 -51 -86 22
-54 37 55 -79 123 -12 -22 25
-50 26 7 -58 0 28 -59 -36
97 22 16 0 72 -9 108 -87
73 -2 13 80 -11 -5 -13 26
-71 110 69 -87 87 40 7 -112
-56 25 -47 -127 -117 45 -61 -127
79 -48 -96 48 101 14 127 -44
5 -43 23 18 -4 11 116 -61
-10 62 126 -127 -14 90 81 -118
-113 93 -86 -63 -127 78 -53 -123
56 -61 -2 89 127 85 77 -41
-37 -51 96 16 58 11 127 -58
-14 127 61 -76 -79 107 80 -97
-127 96 -70 -112 -102 101 -69 -30
127 -49 -25 79 119 103 78 -38
00000000: 7fc9 1555 1117 8200 55c0 dd14 00d7 e1af
00000010: ef40 7418 a10e cd6d 4efc 406c fada f765
00000020: 43d9 f458 6ee2 9641 7fba ff2a caa6 c91b
00000030: 106c fdc7 c8fc 1150 475d 031f dfcb 7a7f
00000040: 390f 2154 fbba 823f 4ffd 0991 eaae 0126
00000050: 0e6e 2db6 b8ee fde4 600c 7fd6 01f3 180f
00000060: 65fd fd58 4de3 ac17 01d8 3081 670b cf7f
00000070: ef5e 0540 e2f9 01a8 0722 6981 46e6 75ff
00000080: 4cd1 370b 3dcd aa16 ca25 37b1 7bf4 ea19
00000090: ce1a 07c6 001c c5dc 6116 1000 48f7 6ca9
000000a0: 49fe 0d50 f5fb f31a b96e 45a9 5728 0790
000000b0: c819 d181 8b2d c381 4fd0 a030 650e 7fd4
000000c0: 05d5 1712 fc0b 74c3 f63e 7e81 f25a 518a
000000d0: 8f5d aac1 814e cb85 38c3 fe59 7f55 4dd7
000000e0: dbcd 6010 3a0b 7fc6 f27f 3db4 b16b 509f
000000f0: 8160 ba90 9a65 bbe2 7fcf e74f 7767 4eda

tfl.pseudo_qconst13 i1 [64, 1, 1, 64]
34 -14 17 -11 -69 -49 0 -74
-19 37 42 8 -16 26 26 -13
-115 -2 -101 29 -12 -87 52 -62
-79 120 -88 9 37 -12 26 54
-75 -94 -42 -69 72 -36 -33 8
-55 17 -32 35 45 4 -18 -42
-10 -109 -34 16 -64 -49 53 -64
-28 5 3 -79 24 9 9 -127
-37 1 36 -9 -107 -24 35 -42
6 30 -12 -26 47 73 -2 87
50 -17 48 86 25 33 -12 -3
-50 49 -19 -1 30 15 6 30
-45 -18 40 86 -26 -68 -32 43
-55 -53 -19 -75 -127 25 44 45
4 -27 52 50 -8 25 -30 19
-1 -32 74 14 50 -26 16 29
0 2 -8 30 -98 -43 -19 54
26 116 25 -44 -32 31 21 -49
-35 67 42 9 30 3 -1 -55
30 -19 -72 -25 6 16 4 20
-65 57 43 -2 28 2 33 10
-109 -63 -127 -15 15 55 -12 -1
-7 -86 81 17 46 -10 1 83
25 53 5 17 72 49 21 -45
3 -2 -28 12 23 21 8 -19
15 3 -52 -24 -7 -42 -14 -25
-49 39 79 -39 -127 -13 31 -16
33 -70 96 65 -34 -57 17 78
-38 59 -1 -29 -6 -52 -33 24
20 -43 -4 60 -33 -12 -29 -45
33 25 -43 -24 -32 79 -14 -23
-37 -33 3 0 -13 -4 -6 -22
00000000: 22f2 11f5 bbcf 00b6 ed25 2a08 f01a 1af3
00000010: 8dfe 9b1d f4a9 34c2 b178 a809 25f4 1a36
00000020: b5a2 d6bb 48dc df08 c911 e023 2d04 eed6
00000030: f693 de10 c0cf 35c0 e405 03b1 1809 0981
00000040: db01 24f7 95e8 23d6 061e f4e6 2f49 fe57
00000050: 32ef 3056 1921 f4fd ce31 edff 1e0f 061e
00000060: d3ee 2856 e6bc e02b c9cb edb5 8119 2c2d
00000070: 04e5 3432 f819 e213 ffe0 4a0e 32e6 101d
00000080: 0002 f81e 9ed5 ed36 1a74 19d4 e01f 15cf
00000090: dd43 2a09 1e03 ffc9 1eed b8e7 0610 0414
000000a0: bf39 2bfe 1c02 210a 93c1 81f1 0f37 f4ff
000000b0: f9aa 5111 2ef6 0153 1935 0511 4831 15d3
000000c0: 03fe e40c 1715 08ed 0f03 cce8 f9d6 f2e7
000000d0: cf27 4fd9 81f3 1ff0 21ba 6041 dec7 114e
000000e0: da3b ffe3 facc df18 14d5 fc3c dff4 e3d3
000000f0: 2119 d5e8 e04f f2e9 dbdf 0300 f3fc faea

tfl.pseudo_qconst15 i1 [1, 11, 1, 32]
21 36 -9 96 -127 -73 -4 -98
127 108 26 -47 44 -50 36 6
127 114 5 22 -75 63 127 77
-77 -27 21 86 48 127 28 -112
-10 64 -15 15 -113 -28 3 -74
98 56 21 -4 56 -57 64 -24
7 25 17 93 -76 -8 115 6
-74 -22 71 127 45 75 127 -127
64 127 42 66 -91 82 -74 -51
16 25 60 -88 37 -78 104 72
36 28 14 103 -127 55 -24 84
9 13 64 -15 11 37 94 -111
103 82 22 26 -59 110 -126 88
53 -71 -30 -127 -7 -15 103 -124
-25 -71 59 66 -37 -13 -48 99
-27 -53 -30 -25 7 -20 -17 -92
-19 -10 79 21 7 42 -30 57
27 -14 24 -91 -6 -47 5 9
19 36 24 127 -36 -16 -59 124
30 -122 -102 -24 50 -3 -98 -44
-127 -104 89 72 18 44 10 127
58 -108 28 -16 29 -12 41 -122
-72 80 29 -11 -55 -68 17 86
-15 -127 -127 57 -1 12 8 7
-92 -45 59 -11 -12 -34 45 45
55 -127 -23 -29 -9 22 -65 -20
-82 30 3 -79 -54 -127 -62 84
7 11 -105 -5 -6 23 -126 -14
-65 3 -7 -35 -20 -54 27 40
27 -104 49 -116 14 67 -7 68
-81 102 35 -22 -114 -49 -114 47
-63 25 -16 -38 -64 -14 -70 44
00000000: 1524 f760 81b7 fc9e 7f6c 1ad1 2cce 2406
00000010: 7f72 0516 b53f 7f4d b3e5 1556 307f 1c90
00000020: f640 f10f 8fe4 03b6 6238 15fc 38c7 40e8
00000030: 0719 115d b4f8 7306 b6ea 477f 2d4b 7f81
00000040: 407f 2a42 a552 b6cd 1019 3ca8 25b2 6848
00000050: 241c 0e67 8137 e854 090d 40f1 0b25 5e91
00000060: 6752 161a c56e 8258 35b9 e281 f9f1 6784
00000070: e7b9 3b42 dbf3 d063 e5cb e2e7 07ec efa4
00000080: edf6 4f15 072a e239 1bf2 18a5 fad1 0509
00000090: 1324 187f dcf0 c57c 1e86 9ae8 32fd 9ed4
000000a0: 8198 5948 122c 0a7f 3a94 1cf0 1df4 2986
000000b0: b850 1df5 c9bc 1156 f181 8139 ff0c 0807
000000c0: a4d3 3bf5 f4de 2d2d 3781 e9e3 f716 bfec
000000d0: ae1e 03b1 ca81 c254 070b 97fb fa17 82f2
000000e0: bf03 f9dd ecca 1b28 1b98 318c 0e43 f944
000000f0: af66 23ea 8ecf 8e2f c119 f0da c0f2 ba2c

tfl.pseudo_qconst17 i1 [1, 7, 1, 32]
32 52 5 39 -62 -84 107 99
121 6 0 111 -101 45 78 -1
127 -18 72 107 -18 22 66 60
-127 -127 18 -51 -60 127 -39 -127
112 89 17 -127 -23 74 -127 106
-15 35 19 127 -35 10 38 114
89 -6 -1 119 -61 102 -17 83
-106 -82 91 -67 -127 23 -28 -34
127 109 -28 -76 30 120 -25 35
-67 61 100 42 -115 88 -62 23
-57 -55 41 55 -60 111 -27 112
87 -109 72 -70 69 19 17 -75
34 79 -57 17 127 27 112 4
-73 70 -8 32 3 100 -114 41
-110 -43 42 127 -62 127 -88 127
110 -36 104 6 1 49 50 -60
-66 127 -28 106 58 96 84 -44
61 47 127 -38 127 127 -127 -127
-109 -99 57 24 -60 117 -127 20
81 -72 127 20 37 20 -48 -108
39 117 -38 -35 88 38 -27 -127
-127 41 91 21 -69 -4 -45 -123
-106 -127 127 55 -127 58 -80 91
-52 -109 -5 58 125 -11 -85 -3
38 45 -127 -93 53 127 -44 -67
-39 127 59 6 38 -89 -52 -79
-49 -80 92 -10 -123 8 -55 54
-100 -21 105 127 126 36 -127 114
00000000: 2034 0527 c2ac 6b63 7906 006f 9b2d 4eff
00000010: 7fee 486b ee16 423c 8181 12cd c47f d981
00000020: 7059 1181 e94a 816a f123 137f dd0a 2672
00000030: 59fa ff77 c366 ef53 96ae 5bbd 8117 e4de
00000040: 7f6d e4b4 1e78 e723 bd3d 642a 8d58 c217
00000050: c7c9 2937 c46f e570 5793 48ba 4513 11b5
00000060: 224f c711 7f1b 7004 b746 f820 0364 8e29
00000070: 92d5 2a7f c27f a87f 6edc 6806 0131 32c4
00000080: be7f e46a 3a60 54d4 3d2f 7fda 7f7f 8181
00000090: 939d 3918 c475 8114 51b8 7f14 2514 d094
000000a0: 2775 dadd 5826 e581 8129 5b15 bbfc d385
000000b0: 9681 7f37 813a b05b cc93 fb3a 7df5 abfd
000000c0: 262d 81a3 357f d4bd d97f 3b06 26a7 ccb1
000000d0: cfb0 5cf6 8508 c936 9ceb 697f 7e24 8172

tfl.pseudo_qconst19 i1 [64, 1, 1, 32]
57 59 44 94 -4 -86 80 -17
-24 -67 17 -29 -24 -77 -102 34
-3 4 27 18 -7 -7 -127 24
-58 25 59 -26 6 -19 -65 -45
-33 -62 -16 -39 -81 -2 -28 79
39 -26 41 14 -81 -8 -44 71
75 74 -6 1 -29 -24 -52 -33
-20 -22 127 -16 58 34 47 -25
-12 -20 -38 21 108 19 5 -66
40 -10 -30 -66 -9 45 -96 83
-51 -127 24 21 24 14 30 -25
-24 -2 -60 63 -61 -13 -65 -34
27 -32 127 1 -103 -20 59 28
-85 46 -11 4 58 -4 -74 -49
31 76 13 -36 -65 23 -31 -108
21 -77 55 62 -7 -24 65 -3
-17 71 59 86 -50 -23 3 47
37 70 -61 -74 -30 -25 75 -127
67 -63 -8 -118 71 -78 90 28
-119 33 -34 49 -82 4 20 85
-12 127 -4 74 9 2 -35 20
22 -3 -80 -76 -38 -37 -47 75
-88 -42 -70 51 -51 42 -5 35
-80 57 -31 14 32 -36 -15 -64
-45 63 -12 -6 -8 -42 -40 -58
0 -4 10 66 127 -63 24 -84
-73 64 20 38 36 19 49 -105
14 84 1 -52 -13 67 -93 24
-88 -38 -11 1 -50 -106 -20 26
0 39 -86 90 -32 -47 26 80
89 -45 18 45 -86 -13 -22 62
127 -12 99 -51 -12 -17 -55 -10
00000000: 393b 2c5e fcaa 50ef e8bd 11e3 e8b3 9a22
00000010: fd04 1b12 f9f9 8118 c619 3be6 06ed bfd3
00000020: dfc2 f0d9 affe e44f 27e6 290e aff8 d447
00000030: 4b4a fa01 e3e8 ccdf ecea 7ff0 3a22 2fe7
00000040: f4ec da15 6c13 05be 28f6 e2be f72d a053
00000050: cd81 1815 180e 1ee7 e8fe c43f c3f3 bfde
00000060: 1be0 7f01 99ec 3b1c ab2e f504 3afc b6cf
00000070: 1f4c 0ddc bf17 e194 15b3 373e f9e8 41fd
00000080: ef47 3b56 cee9 032f 2546 c3b6 e2e7 4b81
00000090: 43c1 f88a 47b2 5a1c 8921 de31 ae04 1455
000000a0: f47f fc4a 0902 dd14 16fd b0b4 dadb d14b
000000b0: a8d6 ba33 cd2a fb23 b039 e10e 20dc f1c0
000000c0: d33f f4fa f8d6 d8c6 00fc 0a42 7fc1 18ac
000000d0: b740 1426 2413 3197 0e54 01cc f343 a318
000000e0: a8da f501 ce96 ec1a 0027 aa5a e0d1 1a50
000000f0: 59d3 122d aaf3 ea3e 7ff4 63cd f4ef c9f6

tfl.pseudo_qconst21 i1 [1, 5, 1, 32]
114 -99 81 -60 -24 41 -51 -34
-21 10 -127 -37 103 127 72 -33
-59 115 127 -65 -38 127 -86 91
111 -28 -25 127 127 110 102 127
110 -100 127 -127 31 110 -127 60
-68 85 28 -127 90 110 127 0
-28 127 -53 -85 -18 33 -63 127
116 -127 -5 80 99 127 127 13
-68 -127 25 -70 -111 72 -38 82
11 127 85 -41 -21 76 124 -127
-39 122 -106 -127 61 123 -47 -16
45 -96 48 76 46 59 8 65
-127 -86 -59 -67 -127 -105 105 104
-10 58 81 85 -127 -76 68 -124
80 -35 -124 -15 -79 24 46 -87
5 -50 127 57 84 -12 -69 -102
-59 -52 -89 52 -45 -127 116 127
127 64 106 82 -114 -87 4 -78
127 49 30 35 -127 113 127 -83
-127 24 89 -32 114 -81 26 58
00000000: 729d 51c4 e829 cdde eb0a 81db 677f 48df
00000010: c573 7fbf da7f aa5b 6fe4 e77f 7f6e 667f
00000020: 6e9c 7f81 1f6e 813c bc55 1c81 5a6e 7f00
00000030: e47f cbab ee21 c17f 7481 fb50 637f 7f0d
00000040: bc81 19ba 9148 da52 0b7f 55d7 eb4c 7c81
00000050: d97a 9681 3d7b d1f0 2da0 304c 2e3b 0841
00000060: 81aa c5bd 8197 6968 f63a 5155 81b4 4484
00000070: 50dd 84f1 b118 2ea9 05ce 7f39 54f4 bb9a
00000080: c5cc a734 d381 747f 7f40 6a52 8ea9 04b2
00000090: 7f31 1e23 8171 7fad 8118 59e0 72af 1a3a

tfl.pseudo_qconst23 i1 [32, 5, 1, 40]
-31 -42 -3 -35 32 -8 -18 16
-52 -25 33 13 -2 4 3 -7
12 7 56 2 15 -74 -3 -35
-65 -10 63 -12 42 16 -6 -24
19 25 67 -1 52 -4 -2 -17
-32 -12 17 -64 -14 -79 22 66
-20 54 66 0 37 17 11 10
-14 0 -15 -16 -17 -29 -18 -12
-65 28 36 40 61 -21 1 -18
-16 19 70 6 73 47 -16 -43
-16 -9 -14 -31 0 -13 20 -19
-49 33 62 48 72 50 -23 -12
-51 -74 -55 -33 -39 -62 -85 -55
-83 -85 39 28 -5 -42 -66 -58
-24 28 58 -15 64 53 -14 -60
9 38 31 -28 21 -50 -4 29
1 52 50 37 94 52 -3 -20
-44 -127 -83 -47 -92 -84 -111 -73
-83 -37 61 60 15 -18 -51 -10
6 -3 38 -14 63 -27 -62 -120
-32 0 -20 -22 -1 -59 -61 8
1 49 18 47 89 98 30 -34
-94 -63 -104 -76 -62 -101 -93 -29
-72 -47 4 5 47 -68 -56 3
35 3 11 3 20 -27 -15 -42
36 -25 -71 -63 -106 -14 -20 -38
-6 -16 -34 43 10 37 64 42
30 19 -1 12 16 35 -3 43
37 35 15 21 30 1 -14 17
-19 20 19 -46 -18 -22 -8 -33
41 -29 -58 -65 -127 3 -65 -34
-43 -33 -16 22 0 76 10 21
00000000: e1d6 fddd 20f8 ee10 cce7 210d fe04 03f9
00000010: 0c07 3802 0fb6 fddd bff6 3ff4 2a10 fae8
00000020: 1319 43ff 34fc feef e0f4 11c0 f2b1 1642
00000030: ec36 4200 2511 0b0a f200 f1f0 efe3 eef4
00000040: bf1c 2428 3deb 01ee f013 4606 492f f0d5
00000050: f0f7 f2e1 00f3 14ed cf21 3e30 4832 e9f4
00000060: cdb6 c9df d9c2 abc9 adab 271c fbd6 bec6
00000070: e81c 3af1 4035 f2c4 0926 1fe4 15ce fc1d
00000080: 0134 3225 5e34 fdec d481 add1 a4ac 91b7
00000090: addb 3d3c 0fee cdf6 06fd 26f2 3fe5 c288
000000a0: e000 ecea ffc5 c308 0131 122f 5962 1ede
000000b0: a2c1 98b4 c29b a3e3 b8d1 0405 2fbc c803
000000c0: 2303 0b03 14e5 f1d6 24e7 b9c1 96f2 ecda
000000d0: faf0 de2b 0a25 402a 1e13 ff0c 1023 fd2b
000000e0: 2523 0f15 1e01 f211 ed14 13d2 eeea f8df
000000f0: 29e3 c6bf 8103 bfde d5df f016 004c 0a15

tfl.pseudo_qconst24 i1 [1, 22, 1, 64] scale=0.040517803 zero_point=-128
0.0 0.0 0.0 0.0 0.0 0.0 0.0 0.0
0.0 0.0 0.0 0.0 0.0 0.0 0.0 0.0
0.0 0.0 0.0 0.0 0.0 0.0 0.0 0.0
0.0 0.0 0.0 0.0 0.0 0.0 0.0 0.0
0.0 0.0 0.0 0.0 0.0 0.0 0.0 0.0
0.0 0.0 0.0 0.0 0.0 0.0 0.0 0.0
0.0 0.0 0.0 0.0 0.0 0.0 0.0 0.0
0.0 0.0 0.0 0.0 0.0 0.0 0.0 0.0
0.0 0.0 0.0 0.0 0.0 0.0 0.0 0.0
0.0 0.0 0.0 0.0 0.0 0.0 0.0 0.0
0.0 0.0 0.0 0.0 0.0 0.0 0.0 0.0
0.0 0.0 0.0 0.0 0.0 0.0 0.0 0.0
0.0 0.0 0.0 0.0 0.0 0.0 0.0 0.0
0.0 0.0 0.0 0.0 0.0 0.0 0.0 0.0
0.0 0.0 0.0 0.0 0.0 0.0 0.0 0.0
0.0 0.0 0.0 0.0 0.0 0.0 0.0 0.0
0.0 0.0 0.0 0.0 0.0 0.0 0.0 0.0
0.0 0.0 0.0 0.0 0.0 0.0 0.0 0.0
0.0 0.0 0.0 0.0 0.0 0.0 0.0 0.0
0.0 0.0 0.0 0.0 0.0 0.0 0.0 0.0
0.0 0.0 0.0 0.0 0.0 0.0 0.0 0.0
0.0 0.0 0.0 0.0 0.0 0.0 0.0 0.0
0.0 0.0 0.0 0.0 0.0 0.0 0.0 0.0
0.0 0.0 0.0 0.0 0.0 0.0 0.0 0.0
0.0 0.0 0.0 0.0 0.0 0.0 0.0 0.0
0.0 0.0 0.0 0.0 0.0 0.0 0.0 0.0
0.0 0.0 0.0 0.0 0.0 0.0 0.0 0.0
0.0 0.0 0.0 0.0 0.0 0.0 0.0 0.0
0.0 0.0 0.0 0.0 0.0 0.0 0.0 0.0
0.0 0.0 0.0 0.0 0.0 0.0 0.0 0.0
0.0 0.0 0.0 0.0 0.0 0.0 0.0 0.0
0.0 0.0 0.0 0.0 0.0 0.0 0.0 0.0
00000000: 8080 8080 8080 8080 8080 8080 8080 8080
00000010: 8080 8080 8080 8080 8080 8080 8080 8080
00000020: 8080 8080 8080 8080 8080 8080 8080 8080
00000030: 8080 8080 8080 8080 8080 8080 8080 8080
00000040: 8080 8080 8080 8080 8080 8080 8080 8080
00000050: 8080 8080 8080 8080 8080 8080 8080 8080
00000060: 8080 8080 8080 8080 8080 8080 8080 8080
00000070: 8080 8080 8080 8080 8080 8080 8080 8080
00000080: 8080 8080 8080 8080 8080 8080 8080 8080
00000090: 8080 8080 8080 8080 8080 8080 8080 8080
000000a0: 8080 8080 8080 8080 8080 8080 8080 8080
000000b0: 8080 8080 8080 8080 8080 8080 8080 8080
000000c0: 8080 8080 8080 8080 8080 8080 8080 8080
000000d0: 8080 8080 8080 8080 8080 8080 8080 8080
000000e0: 8080 8080 8080 8080 8080 8080 8080 8080
000000f0: 8080 8080 8080 8080 8080 8080 8080 8080

tfl.pseudo_qconst25 i1 [1, 36, 1, 64] scale=0.025402837 zero_point=-128
0.0 0.0 0.0 0.0 0.0 0.0 0.0 0.0
0.0 0.0 0.0 0.0 0.0 0.0 0.0 0.0
0.0 0.0 0.0 0.0 0.0 0.0 0.0 0.0
0.0 0.0 0.0 0.0 0.0 0.0 0.0 0.0
0.0 0.0 0.0 0.0 0.0 0.0 0.0 0.0
0.0 0.0 0.0 0.0 0.0 0.0 0.0 0.0
0.0 0.0 0.0 0.0 0.0 0.0 0.0 0.0
0.0 0.0 0.0 0.0 0.0 0.0 0.0 0.0
0.0 0.0 0.0 0.0 0.0 0.0 0.0 0.0
0.0 0.0 0.0 0.0 0.0 0.0 0.0 0.0
0.0 0.0 0.0 0.0 0.0 0.0 0.0 0.0
0.0 0.0 0.0 0.0 0.0 0.0 0.0 0.0
0.0 0.0 0.0 0.0 0.0 0.0 0.0 0.0
0.0 0.0 0.0 0.0 0.0 0.0 0.0 0.0
0.0 0.0 0.0 0.0 0.0 0.0 0.0 0.0
0.0 0.0 0.0 0.0 0.0 0.0 0.0 0.0
0.0 0.0 0.0 0.0 0.0 0.0 0.0 0.0
0.0 0.0 0.0 0.0 0.0 0.0 0.0 0.0
0.0 0.0 0.0 0.0 0.0 0.0 0.0 0.0
0.0 0.0 0.0 0.0 0.0 0.0 0.0 0.0
0.0 0.0 0.0 0.0 0.0 0.0 0.0 0.0
0.0 0.0 0.0 0.0 0.0 0.0 0.0 0.0
0.0 0.0 0.0 0.0 0.0 0.0 0.0 0.0
0.0 0.0 0.0 0.0 0.0 0.0 0.0 0.0
0.0 0.0 0.0 0.0 0.0 0.0 0.0 0.0
0.0 0.0 0.0 0.0 0.0 0.0 0.0 0.0
0.0 0.0 0.0 0.0 0.0 0.0 0.0 0.0
0.0 0.0 0.0 0.0 0.0 0.0 0.0 0.0
0.0 0.0 0.0 0.0 0.0 0.0 0.0 0.0
0.0 0.0 0.0 0.0 0.0 0.0 0.0 0.0
0.0 0.0 0.0 0.0 0.0 0.0 0.0 0.0
0.0 0.0 0.0 0.0 0.0 0.0 0.0 0.0
00000000: 8080 8080 8080 8080 8080 8080 8080 8080
00000010: 8080 8080 8080 8080 8080 8080 8080 8080
00000020: 8080 8080 8080 8080 8080 8080 8080 8080
00000030: 8080 8080 8080 8080 8080 8080 8080 8080
00000040: 8080 8080 8080 8080 8080 8080 8080 8080
00000050: 8080 8080 8080 8080 8080 8080 8080 8080
00000060: 8080 8080 8080 8080 8080 8080 8080 8080
00000070: 8080 8080 8080 8080 8080 8080 8080 8080
00000080: 8080 8080 8080 8080 8080 8080 8080 8080
00000090: 8080 8080 8080 8080 8080 8080 8080 8080
000000a0: 8080 8080 8080 8080 8080 8080 8080 8080
000000b0: 8080 8080 8080 8080 8080 8080 8080 8080
000000c0: 8080 8080 8080 8080 8080 8080 8080 8080
000000d0: 8080 8080 8080 8080 8080 8080 8080 8080
000000e0: 8080 8080 8080 8080 8080 8080 8080 8080
000000f0: 8080 8080 8080 8080 8080 8080 8080 8080

tfl.pseudo_qconst26 i1 [1, 3, 1, 40] scale=0.101960786 zero_point=-128
0.0 0.0 0.0 0.0 0.0 0.0 0.0 0.0
0.0 0.0 0.0 0.0 0.0 0.0 0.0 0.0
0.0 0.0 0.0 0.0 0.0 0.0 0.0 0.0
0.0 0.0 0.0 0.0 0.0 0.0 0.0 0.0
0.0 0.0 0.0 0.0 0.0 0.0 0.0 0.0
0.0 0.0 0.0 0.0 0.0 0.0 0.0 0.0
0.0 0.0 0.0 0.0 0.0 0.0 0.0 0.0
0.0 0.0 0.0 0.0 0.0 0.0 0.0 0.0
0.0 0.0 0.0 0.0 0.0 0.0 0.0 0.0
0.0 0.0 0.0 0.0 0.0 0.0 0.0 0.0
0.0 0.0 0.0 0.0 0.0 0.0 0.0 0.0
0.0 0.0 0.0 0.0 0.0 0.0 0.0 0.0
0.0 0.0 0.0 0.0 0.0 0.0 0.0 0.0
0.0 0.0 0.0 0.0 0.0 0.0 0.0 0.0
0.0 0.0 0.0 0.0 0.0 0.0 0.0 0.0
00000000: 8080 8080 8080 8080 8080 8080 8080 8080
00000010: 8080 8080 8080 8080 8080 8080 8080 8080
00000020: 8080 8080 8080 8080 8080 8080 8080 8080
00000030: 8080 8080 8080 8080 8080 8080 8080 8080
00000040: 8080 8080 8080 8080 8080 8080 8080 8080
00000050: 8080 8080 8080 8080 8080 8080 8080 8080
00000060: 8080 8080 8080 8080 8080 8080 8080 8080
00000070: 8080 8080 8080 8080

tfl.pseudo_qconst27 i1 [1, 4, 1, 32] scale=1.0197145 zero_point=-128
0.0 0.0 0.0 0.0 0.0 0.0 0.0 0.0
0.0 0.0 0.0 0.0 0.0 0.0 0.0 0.0
0.0 0.0 0.0 0.0 0.0 0.0 0.0 0.0
0.0 0.0 0.0 0.0 0.0 0.0 0.0 0.0
0.0 0.0 0.0 0.0 0.0 0.0 0.0 0.0
0.0 0.0 0.0 0.0 0.0 0.0 0.0 0.0
0.0 0.0 0.0 0.0 0.0 0.0 0.0 0.0
0.0 0.0 0.0 0.0 0.0 0.0 0.0 0.0
0.0 0.0 0.0 0.0 0.0 0.0 0.0 0.0
0.0 0.0 0.0 0.0 0.0 0.0 0.0 0.0
0.0 0.0 0.0 0.0 0.0 0.0 0.0 0.0
0.0 0.0 0.0 0.0 0.0 0.0 0.0 0.0
0.0 0.0 0.0 0.0 0.0 0.0 0.0 0.0
0.0 0.0 0.0 0.0 0.0 0.0 0.0 0.0
0.0 0.0 0.0 0.0 0.0 0.0 0.0 0.0
0.0 0.0 0.0 0.0 0.0 0.0 0.0 0.0
00000000: 8080 8080 8080 8080 8080 8080 8080 8080
00000010: 8080 8080 8080 8080 8080 8080 8080 8080
00000020: 8080 8080 8080 8080 8080 8080 8080 8080
00000030: 8080 8080 8080 8080 8080 8080 8080 8080
00000040: 8080 8080 8080 8080 8080 8080 8080 8080
00000050: 8080 8080 8080 8080 8080 8080 8080 8080
00000060: 8080 8080 8080 8080 8080 8080 8080 8080
00000070: 8080 8080 8080 8080 8080 8080 8080 8080

tfl.pseudo_qconst28 i1 [1, 10, 1, 64] scale=0.046114035 zero_point=-128
0.0 0.0 0.0 0.0 0.0 0.0 0.0 0.0
0.0 0.0 0.0 0.0 0.0 0.0 0.0 0.0
0.0 0.0 0.0 0.0 0.0 0.0 0.0 0.0
0.0 0.0 0.0 0.0 0.0 0.0 0.0 0.0
0.0 0.0 0.0 0.0 0.0 0.0 0.0 0.0
0.0 0.0 0.0 0.0 0.0 0.0 0.0 0.0
0.0 0.0 0.0 0.0 0.0 0.0 0.0 0.0
0.0 0.0 0.0 0.0 0.0 0.0 0.0 0.0
0.0 0.0 0.0 0.0 0.0 0.0 0.0 0.0
0.0 0.0 0.0 0.0 0.0 0.0 0.0 0.0
0.0 0.0 0.0 0.0 0.0 0.0 0.0 0.0
0.0 0.0 0.0 0.0 0.0 0.0 0.0 0.0
0.0 0.0 0.0 0.0 0.0 0.0 0.0 0.0
0.0 0.0 0.0 0.0 0.0 0.0 0.0 0.0
0.0 0.0 0.0 0.0 0.0 0.0 0.0 0.0
0.0 0.0 0.0 0.0 0.0 0.0 0.0 0.0
0.0 0.0 0.0 0.0 0.0 0.0 0.0 0.0
0.0 0.0 0.0 0.0 0.0 0.0 0.0 0.0
0.0 0.0 0.0 0.0 0.0 0.0 0.0 0.0
0.0 0.0 0.0 0.0 0.0 0.0 0.0 0.0
0.0 0.0 0.0 0.0 0.0 0.0 0.0 0.0
0.0 0.0 0.0 0.0 0.0 0.0 0.0 0.0
0.0 0.0 0.0 0.0 0.0 0.0 0.0 0.0
0.0 0.0 0.0 0.0 0.0 0.0 0.0 0.0
0.0 0.0 0.0 0.0 0.0 0.0 0.0 0.0
0.0 0.0 0.0 0.0 0.0 0.0 0.0 0.0
0.0 0.0 0.0 0.0 0.0 0.0 0.0 0.0
0.0 0.0 0.0 0.0 0.0 0.0 0.0 0.0
0.0 0.0 0.0 0.0 0.0 0.0 0.0 0.0
0.0 0.0 0.0 0.0 0.0 0.0 0.0 0.0
0.0 0.0 0.0 0.0 0.0 0.0 0.0 0.0
0.0 0.0 0.0 0.0 0.0 0.0 0.0 0.0
00000000: 8080 8080 8080 8080 8080 8080 8080 8080
00000010: 8080 8080 8080 8080 8080 8080 8080 8080
00000020: 8080 8080 8080 8080 8080 8080 8080 8080
00000030: 8080 8080 8080 8080 8080 8080 8080 8080
00000040: 8080 8080 8080 8080 8080 8080 8080 8080
00000050: 8080 8080 8080 8080 8080 8080 8080 8080
00000060: 8080 8080 8080 8080 8080 8080 8080 8080
00000070: 8080 8080 8080 8080 8080 8080 8080 8080
00000080: 8080 8080 8080 8080 8080 8080 8080 8080
00000090: 8080 8080 8080 8080 8080 8080 8080 8080
000000a0: 8080 8080 8080 8080 8080 8080 8080 8080
000000b0: 8080 8080 8080 8080 8080 8080 8080 8080
000000c0: 8080 8080 8080 8080 8080 8080 8080 8080
000000d0: 8080 8080 8080 8080 8080 8080 8080 8080
000000e0: 8080 8080 8080 8080 8080 8080 8080 8080
000000f0: 8080 8080 8080 8080 8080 8080 8080 8080

tfl.pseudo_qconst29 i1 [1, 14, 1, 64] scale=0.042497028 zero_point=-128
0.0 0.0 0.0 0.0 0.0 0.0 0.0 0.0
0.0 0.0 0.0 0.0 0.0 0.0 0.0 0.0
0.0 0.0 0.0 0.0 0.0 0.0 0.0 0.0
0.0 0.0 0.0 0.0 0.0 0.0 0.0 0.0
0.0 0.0 0.0 0.0 0.0 0.0 0.0 0.0
0.0 0.0 0.0 0.0 0.0 0.0 0.0 0.0
0.0 0.0 0.0 0.0 0.0 0.0 0.0 0.0
0.0 0.0 0.0 0.0 0.0 0.0 0.0 0.0
0.0 0.0 0.0 0.0 0.0 0.0 0.0 0.0
0.0 0.0 0.0 0.0 0.0 0.0 0.0 0.0
0.0 0.0 0.0 0.0 0.0 0.0 0.0 0.0
0.0 0.0 0.0 0.0 0.0 0.0 0.0 0.0
0.0 0.0 0.0 0.0 0.0 0.0 0.0 0.0
0.0 0.0 0.0 0.0 0.0 0.0 0.0 0.0
0.0 0.0 0.0 0.0 0.0 0.0 0.0 0.0
0.0 0.0 0.0 0.0 0.0 0.0 0.0 0.0
0.0 0.0 0.0 0.0 0.0 0.0 0.0 0.0
0.0 0.0 0.0 0.0 0.0 0.0 0.0 0.0
0.0 0.0 0.0 0.0 0.0 0.0 0.0 0.0
0.0 0.0 0.0 0.0 0.0 0.0 0.0 0.0
0.0 0.0 0.0 0.0 0.0 0.0 0.0 0.0
0.0 0.0 0.0 0.0 0.0 0.0 0.0 0.0
0.0 0.0 0.0 0.0 0.0 0.0 0.0 0.0
0.0 0.0 0.0 0.0 0.0 0.0 0.0 0.0
0.0 0.0 0.0 0.0 0.0 0.0 0.0 0.0
0.0 0.0 0.0 0.0 0.0 0.0 0.0 0.0
0.0 0.0 0.0 0.0 0.0 0.0 0.0 0.0
0.0 0.0 0.0 0.0 0.0 0.0 0.0 0.0
0.0 0.0 0.0 0.0 0.0 0.0 0.0 0.0
0.0 0.0 0.0 0.0 0.0 0.0 0.0 0.0
0.0 0.0 0.0 0.0 0.0 0.0 0.0 0.0
0.0 0.0 0.0 0.0 0.0 0.0 0.0 0.0
00000000: 8080 8080 8080 8080 8080 8080 8080 8080
00000010: 8080 8080 8080 8080 8080 8080 8080 8080
00000020: 8080 8080 8080 8080 8080 8080 8080 8080
00000030: 8080 8080 8080 8080 8080 8080 8080 8080
00000040: 8080 8080 8080 8080 8080 8080 8080 8080
00000050: 8080 8080 8080 8080 8080 8080 8080 8080
00000060: 8080 8080 8080 8080 8080 8080 8080 8080
00000070: 8080 8080 8080 8080 8080 8080 8080 8080
00000080: 8080 8080 8080 8080 8080 8080 8080 8080
00000090: 8080 8080 8080 8080 8080 8080 8080 8080
000000a0: 8080 8080 8080 8080 8080 8080 8080 8080
000000b0: 8080 8080 8080 8080 8080 8080 8080 8080
000000c0: 8080 8080 8080 8080 8080 8080 8080 8080
000000d0: 8080 8080 8080 8080 8080 8080 8080 8080
000000e0: 8080 8080 8080 8080 8080 8080 8080 8080
000000f0: 8080 8080 8080 8080 8080 8080 8080 8080
