microwakeword/okay_hal.tflite (tflite, 63544 bytes, 18 tensors)

tfl.pseudo_qconst1 i1 [1, 2368] scale=0.0056524603 zero_point=0
000000 0b d5 13 f3 fe 08 f9 d8 d5 26 e5 f0 ec ea db 10
       0.062177062 -0.24305579 0.107396744 -0.073481984 -0.011304921 0.045219682 -0.03956722 -0.22609842 -0.24305579 0.21479349 -0.15261643 -0.090439364 -0.11304921 -0.124354124 -0.20914103 0.090439364
000010 fa fb 01 d6 ce 0c e9 e5 d3 e6 f1 da b5 e1 2f f5
       -0.03391476 -0.028262302 0.0056524603 -0.23740333 -0.28262302 0.06782952 -0.13000658 -0.15261643 -0.2543607 -0.14696397 -0.08478691 -0.21479349 -0.42393452 -0.17522627 0.26566562 -0.062177062
000020 ea 09 f1 11 e3 00 27 00 d4 d1 ef f0 f1 23 d5 d1
       -0.124354124 0.050872143 -0.08478691 0.09609182 -0.16392134 0.0 0.22044595 0.0 -0.24870825 -0.26566562 -0.09609182 -0.090439364 -0.08478691 0.19783612 -0.24305579 -0.26566562
000030 09 28 fd fd f5 e6 ef f8 f6 01 f0 ce ff e4 e5 e4
       0.050872143 0.22609842 -0.01695738 -0.01695738 -0.062177062 -0.14696397 -0.09609182 -0.045219682 -0.056524605 0.0056524603 -0.090439364 -0.28262302 -0.0056524603 -0.15826888 -0.15261643 -0.15826888
000040 06 e8 0e 01 ff 0c 04 f3 e7 1d f1 07 fd f3 f9 13
       0.03391476 -0.13565904 0.07913444 0.0056524603 -0.0056524603 0.06782952 0.022609841 -0.073481984 -0.14131151 0.16392134 -0.08478691 0.03956722 -0.01695738 -0.073481984 -0.03956722 0.107396744
000050 f8 fd 0c ec ec 06 f0 fa e9 e9 01 da ca eb 19 fd
       -0.045219682 -0.01695738 0.06782952 -0.11304921 -0.11304921 0.03391476 -0.090439364 -0.03391476 -0.13000658 -0.13000658 0.0056524603 -0.21479349 -0.30523285 -0.11870167 0.14131151 -0.01695738
000060 fc 0b fb 13 e6 08 21 01 dc e9 f8 fa e6 1f f4 dc
       -0.022609841 0.062177062 -0.028262302 0.107396744 -0.14696397 0.045219682 0.18653119 0.0056524603 -0.20348857 -0.13000658 -0.045219682 -0.03391476 -0.14696397 0.17522627 -0.06782952 -0.20348857
000070 0e 1d fb ff f2 f7 05 07 f7 fc e8 e8 fd f3 fc fb
       0.07913444 0.16392134 -0.028262302 -0.0056524603 -0.07913444 -0.050872143 0.028262302 0.03956722 -0.050872143 -0.022609841 -0.13565904 -0.13565904 -0.01695738 -0.073481984 -0.022609841 -0.028262302
000080 0d f0 07 f7 ff fe fd fa ef 10 eb 06 01 00 fd 10
       0.073481984 -0.090439364 0.03956722 -0.050872143 -0.0056524603 -0.011304921 -0.01695738 -0.03391476 -0.09609182 0.090439364 -0.11870167 0.03391476 0.0056524603 0.0 -0.01695738 0.090439364
000090 fc e6 05 ee ff f6 f9 f7 ea f9 05 ed e8 f4 0c eb
       -0.022609841 -0.14696397 0.028262302 -0.10174429 -0.0056524603 -0.056524605 -0.03956722 -0.050872143 -0.124354124 -0.03956722 0.028262302 -0.107396744 -0.13565904 -0.06782952 0.06782952 -0.11870167
0000a0 14 00 fe 04 e8 07 15 f5 e2 fa fe 08 ea 0d f9 e1
       0.11304921 0.0 -0.011304921 0.022609841 -0.13565904 0.03956722 0.11870167 -0.062177062 -0.16957381 -0.03391476 -0.011304921 0.045219682 -0.124354124 0.073481984 -0.03956722 -0.17522627
0000b0 00 24 f4 fd f2 ff 04 03 ff fb f9 eb fb f8 fc f8
       0.0 0.20348857 -0.06782952 -0.01695738 -0.07913444 -0.0056524603 0.022609841 0.01695738 -0.0056524603 -0.028262302 -0.03956722 -0.11870167 -0.028262302 -0.045219682 -0.022609841 -0.045219682
0000c0 06 e9 f5 f8 01 04 fb 01 f5 04 f5 0b 03 07 09 08
       0.03391476 -0.13000658 -0.062177062 -0.045219682 0.0056524603 0.022609841 -0.028262302 0.0056524603 -0.062177062 0.022609841 -0.062177062 0.062177062 0.01695738 0.03956722 0.050872143 0.045219682
0000d0 04 eb f3 f1 02 fc f1 f9 ef fb 0e fc f5 f3 ef e1
       0.022609841 -0.11870167 -0.073481984 -0.08478691 0.011304921 -0.022609841 -0.08478691 -0.03956722 -0.09609182 -0.028262302 0.07913444 -0.022609841 -0.062177062 -0.073481984 -0.09609182 -0.17522627
0000e0 1a f2 f6 ff f6 05 18 f4 db f2 00 0b e2 11 09 f3
       0.14696397 -0.07913444 -0.056524605 -0.0056524603 -0.056524605 0.028262302 0.13565904 -0.06782952 -0.20914103 -0.07913444 0.0 0.062177062 -0.16957381 0.09609182 0.050872143 -0.073481984
0000f0 fa 23 f6 fa e8 10 11 f0 08 03 f3 f3 00 05 ee f0
       -0.03391476 0.19783612 -0.056524605 -0.03391476 -0.13565904 0.090439364 0.09609182 -0.090439364 0.045219682 0.01695738 -0.073481984 -0.073481984 0.0 0.028262302 -0.10174429 -0.090439364

tfl.pseudo_qconst3 i1 [64, 1, 1, 64]
000000 3c 52 bb f6 f3 2a fb ee bc 11 5e a0 30 07 d6 8a
       60 82 -69 -10 -13 42 -5 -18 -68 17 94 -96 48 7 -42 -118
000010 fa 32 0c 08 7f 20 c0 32 f9 fe 4b 48 fb 4d ea ec
       -6 50 12 8 127 32 -64 50 -7 -2 75 72 -5 77 -22 -20
000020 d5 eb 08 ef 0c f2 25 33 1d 3f 3c 30 0c 29 0a c7
       -43 -21 8 -17 12 -14 37 51 29 63 60 48 12 41 10 -57
000030 00 fe 1c 26 c4 16 e9 32 3d 02 ea 35 cb 07 1e 2e
       0 -2 28 38 -60 22 -23 50 61 2 -22 53 -53 7 30 46
000040 f8 08 f9 df f1 f2 f7 fa 0a bf 3f c8 57 1d 17 d7
       -8 8 -7 -33 -15 -14 -9 -6 10 -65 63 -56 87 29 23 -41
000050 81 0f f8 09 29 58 0d 0f b8 1d 42 2d cd 2f 03 fc
       -127 15 -8 9 41 88 13 15 -72 29 66 45 -51 47 3 -4
000060 11 e2 f6 3e cc fe 22 16 fe f0 1f 10 e1 26 f0 f4
       17 -30 -10 62 -52 -2 34 22 -2 -16 31 16 -31 38 -16 -12
000070 ff cc 07 aa ff d0 d4 fd d7 e2 2e 1c c4 fb 06 1b
       -1 -52 7 -86 -1 -48 -44 -3 -41 -30 46 28 -60 -5 6 27
000080 45 51 3f ea ee fa d8 81 15 ea e1 8a ef cb a4 e1
       69 81 63 -22 -18 -6 -40 -127 21 -22 -31 -118 -17 -53 -92 -31
000090 53 4d 8b 24 20 40 bf 39 35 49 ed 0e 4d 4c 96 1a
       83 77 -117 36 32 64 -65 57 53 73 -19 14 77 76 -106 26
0000a0 b8 b6 c0 d0 cc f6 40 ea c6 f6 1e 4c db 04 14 d9
       -72 -74 -64 -48 -52 -10 64 -22 -58 -10 30 76 -37 4 20 -39
0000b0 11 db 26 19 26 13 ce 38 1c 43 06 f4 0e 23 40 cd
       17 -37 38 25 38 19 -50 56 28 67 6 -12 14 35 64 -51
0000c0 bb db e6 e3 0e 02 95 fd 20 f9 c9 fc fd 0e fc 27
       -69 -37 -26 -29 14 2 -107 -3 32 -7 -55 -4 -3 14 -4 39
0000d0 81 a9 be ea fc 36 a9 f5 f7 33 60 f6 16 e5 3b ec
       -127 -87 -66 -22 -4 54 -87 -11 -9 51 96 -10 22 -27 59 -20
0000e0 c0 9c 37 38 d5 e8 24 8e e1 12 0e dd 98 f6 16 e2
       -64 -100 55 56 -43 -24 36 -114 -31 18 14 -35 -104 -10 22 -30
0000f0 05 f0 a1 d9 10 f1 b6 27 f3 1b c7 18 44 f7 df ff
       5 -16 -95 -39 16 -15 -74 39 -13 27 -57 24 68 -9 -33 -1

tfl.pseudo_qconst5 i1 [1, 23, 1, 64]
000000 0b 7f 81 f9 9a e2 e9 14 eb 7f b2 81 fe 7f 7f 32
       11 127 -127 -7 -102 -30 -23 20 -21 127 -78 -127 -2 127 127 50
000010 31 b9 e3 81 dd e9 ca a1 7f 89 17 15 0f 82 3f 48
       49 -71 -29 -127 -35 -23 -54 -95 127 -119 23 21 15 -126 63 72
000020 7f 4f e5 81 c2 7f ee 33 b5 13 7f 96 43 bd fe 47
       127 79 -27 -127 -62 127 -18 51 -75 19 127 -106 67 -67 -2 71
000030 46 b7 7f 97 08 7f 26 7f 81 b9 7f e1 bc 26 5e f8
       70 -73 127 -105 8 127 38 127 -127 -71 127 -31 -68 38 94 -8
000040 11 57 96 ea 9c fd df 29 b7 64 ad 92 10 63 7b 1e
       17 87 -106 -22 -100 -3 -33 41 -73 100 -83 -110 16 99 123 30
000050 26 be ef b1 d6 ec ee 81 4a ce 18 0b 25 81 38 01
       38 -66 -17 -79 -42 -20 -18 -127 74 -50 24 11 37 -127 56 1
000060 5c 30 d2 9b 9d 7c d3 3b c0 1b 5f 94 28 81 ef 71
       92 48 -46 -101 -99 124 -45 59 -64 27 95 -108 40 -127 -17 113
000070 7f ab 66 81 c3 63 23 45 cb de 59 c5 c1 7f 7f e2
       127 -85 102 -127 -61 99 35 69 -53 -34 89 -59 -63 127 127 -30
000080 f7 2c b1 f8 f5 f9 d6 1a f0 68 bd 9c 12 5f 69 1b
       -9 44 -79 -8 -11 -7 -42 26 -16 104 -67 -100 18 95 105 27
000090 02 9f e8 87 e3 dc 0d 9f 3d a6 1d f2 05 99 d7 e5
       2 -97 -24 -121 -29 -36 13 -97 61 -90 29 -14 5 -103 -41 -27
0000a0 29 2a ef bb b6 5b b7 5a c6 18 1c ae 36 c6 fd 52
       41 42 -17 -69 -74 91 -73 90 -58 24 28 -82 54 -58 -3 82
0000b0 4d a0 4a 9b cf 64 1b 40 06 ba 6f d9 d0 2c 6d bf
       77 -96 74 -101 -49 100 27 64 6 -70 111 -39 -48 44 109 -65
0000c0 f7 0e b9 de 15 f1 eb 29 ce 4f dd bc 03 33 6d 1f
       -9 14 -71 -34 21 -15 -21 41 -50 79 -35 -68 3 51 109 31
0000d0 ef b7 e7 9e c8 e8 43 e2 2a a0 37 f9 24 9b f5 fd
       -17 -73 -25 -98 -56 -24 67 -30 42 -96 55 -7 36 -101 -11 -3
0000e0 33 25 d0 d2 81 25 d1 4e f7 03 16 f5 27 c0 0a 2a
       51 37 -48 -46 -127 37 -47 78 -9 3 22 -11 39 -64 10 42
0000f0 5a b2 35 bf e0 50 1b 32 1a b8 34 d9 dd 3e 4d a2
       90 -78 53 -65 -32 80 27 50 26 -72 52 -39 -35 62 77 -94

tfl.pseudo_qconst7 i1 [64, 1, 1, 64]
000000 43 bf a5 fa 36 1d f2 15 5c cc 1c de 1e 13 c9 ea
       67 -65 -91 -6 54 29 -14 21 92 -52 28 -34 30 19 -55 -22
000010 ec 37 cb 26 41 ea 18 e7 36 ab b9 ff c1 11 16 2e
       -20 55 -53 38 65 -22 24 -25 54 -85 -71 -1 -63 17 22 46
000020 eb ad 43 db 21 be f6 43 e5 14 08 3d ec fd 0c fa
       -21 -83 67 -37 33 -66 -10 67 -27 20 8 61 -20 -3 12 -6
000030 7f 25 b9 d7 1f 1d 3c 07 0e e9 d5 c5 28 0c e8 e2
       127 37 -71 -41 31 29 60 7 14 -23 -43 -59 40 12 -24 -30
000040 fa e6 e2 fe d6 53 c7 e5 2f e5 18 8d 04 d3 15 51
       -6 -26 -30 -2 -42 83 -57 -27 47 -27 24 -115 4 -45 21 81
000050 3a 38 2a f9 fa 14 cf 1e d5 24 df 0a 43 de 36 bd
       58 56 42 -7 -6 20 -49 30 -43 36 -33 10 67 -34 54 -67
000060 25 20 d7 e6 2c ae ed 5a 7f 1d d1 3a 13 18 21 e6
       37 32 -41 -26 44 -82 -19 90 127 29 -47 58 19 24 33 -26
000070 e2 f5 00 f7 0c c1 0f ea 33 71 3f d9 3f ff 0b 3d
       -30 -11 0 -9 12 -63 15 -22 51 113 63 -39 63 -1 11 61
000080 5c dd 13 c0 0d 16 0e 58 f0 45 0c c5 f7 32 07 f8
       92 -35 19 -64 13 22 14 88 -16 69 12 -59 -9 50 7 -8
000090 81 fe 06 d9 e9 18 da 3a f9 2a 07 e2 15 c3 de 21
       -127 -2 6 -39 -23 24 -38 58 -7 42 7 -30 21 -61 -34 33
0000a0 fb a3 26 2c 10 07 43 55 32 32 3d 02 e1 06 ea 9c
       -5 -93 38 44 16 7 67 85 50 50 61 2 -31 6 -22 -100
0000b0 b0 15 e6 09 f3 0c c7 ea 02 bd 27 f5 1f 52 4c dc
       -80 21 -26 9 -13 12 -57 -22 2 -67 39 -11 31 82 76 -36
0000c0 ef 02 a1 14 ba 12 8f 16 fe b9 4e d7 02 0b b3 1a
       -17 2 -95 20 -70 18 -113 22 -2 -71 78 -41 2 11 -77 26
0000d0 fb 02 81 2f 13 51 39 db fb f3 ce 1f 2a 41 e8 25
       -5 2 -127 47 19 81 57 -37 -5 -13 -50 31 42 65 -24 37
0000e0 ca f1 23 fd 0d ed 02 4f 0d e6 13 d2 d3 33 03 c8
       -54 -15 35 -3 13 -19 2 79 13 -26 19 -46 -45 51 3 -56
0000f0 e8 42 cd 21 04 e0 c8 23 d7 e1 29 14 2d 13 ea 51
       -24 66 -51 33 4 -32 -56 35 -41 -31 41 20 45 19 -22 81

tfl.pseudo_qconst9 i1 [1, 15, 1, 32]
000000 b6 81 7c 9f 7f b5 d1 49 7f 81 6a ba 8a 2b 7f 42
       -74 -127 124 -97 127 -75 -47 73 127 -127 106 -70 -118 43 127 66
000010 e7 7f 81 34 81 3d 7f 81 81 d4 2b 3e 81 4a 0e 54
       -25 127 -127 52 -127 61 127 -127 -127 -44 43 62 -127 74 14 84
000020 ba a5 60 dc 55 df a9 56 6d 88 15 f5 b9 6a 52 73
       -70 -91 96 -36 85 -33 -87 86 109 -120 21 -11 -71 106 82 115
000030 e6 39 9f 1d 9c 45 5f db c3 cd 1d 33 a8 7f e3 7f
       -26 57 -97 29 -100 69 95 -37 -61 -51 29 51 -88 127 -29 127
000040 d6 9e 41 ef 57 c2 d6 35 5e ce 31 00 d6 44 3e 00
       -42 -98 65 -17 87 -62 -42 53 94 -50 49 0 -42 68 62 0
000050 17 5e d9 04 8c 68 57 0e d2 ea 1a 05 cf fa 00 57
       23 94 -39 4 -116 104 87 14 -46 -22 26 5 -49 -6 0 87
000060 d3 d3 67 bf 07 f0 b4 13 02 d3 7f fb d8 0d 2b 4b
       -45 -45 103 -65 7 -16 -76 19 2 -45 127 -5 -40 13 43 75
000070 c9 5b 9e 0d ce 42 27 f8 30 42 0e 53 fe 48 e0 6b
       -55 91 -98 13 -50 66 39 -8 48 66 14 83 -2 72 -32 107
000080 81 e4 42 d3 65 ed d1 57 20 d6 61 7f e9 da 05 1e
       -127 -28 66 -45 101 -19 -47 87 32 -42 97 127 -23 -38 5 30
000090 c2 38 e0 e2 b5 fc 3e 00 02 41 15 09 e3 25 e3 72
       -62 56 -32 -30 -75 -4 62 0 2 65 21 9 -29 37 -29 114
0000a0 96 de 20 03 76 61 c5 62 d4 b8 1b 54 16 1a 0d 31
       -106 -34 32 3 118 97 -59 98 -44 -72 27 84 22 26 13 49
0000b0 df 3c e6 e5 e6 18 25 07 14 7a d5 22 14 18 e8 5a
       -33 60 -26 -27 -26 24 37 7 20 122 -43 34 20 24 -24 90
0000c0 c3 12 08 6e 42 46 b2 7f f7 ac db 7f fd e1 28 3e
       -61 18 8 110 66 70 -78 127 -9 -84 -37 127 -3 -31 40 62
0000d0 c5 48 ca cf e5 e4 36 3a f6 49 f8 e0 ee b8 0c 3f
       -59 72 -54 -49 -27 -28 54 58 -10 73 -8 -32 -18 -72 12 63
0000e0 8b 37 18 7f 70 69 c8 7f e5 c5 d3 3a 0b c9 1b 39
       -117 55 24 127 112 105 -56 127 -27 -59 -45 58 11 -55 27 57
0000f0 d5 18 dd c6 dc f9 18 12 e3 4f df b0 08 ca fa 26
       -43 24 -35 -58 -36 -7 24 18 -29 79 -33 -80 8 -54 -6 38

tfl.pseudo_qconst11 i1 [1, 9, 1, 32]
000000 7f 2c 17 ed b1 3d 0b 95 a6 06 16 1b 63 55 2b f5
       127 44 23 -19 -79 61 11 -107 -90 6 22 27 99 85 43 -11
000010 81 52 c9 4b 7f 81 7f b4 a4 7f 30 7b 6d 5c 7f 31
       -127 82 -55 75 127 -127 127 -76 -92 127 48 123 109 92 127 49
000020 4d fa 07 e5 af ca df fe 16 29 0e f8 d0 64 7f f2
       77 -6 7 -27 -81 -54 -33 -2 22 41 14 -8 -48 100 127 -14
000030 a3 2c 81 34 fd 32 77 bf 7f 0e 20 7f 15 ce 6b f2
       -93 44 -127 52 -3 50 119 -65 127 14 32 127 21 -50 107 -14
000040 23 09 63 ce a3 ab 09 f2 07 2e 2a ea a6 d5 40 f6
       35 9 99 -50 -93 -85 9 -14 7 46 42 -22 -90 -43 64 -10
000050 90 0a e8 52 24 1f 54 9e 39 5e 1f f5 7f e2 16 01
       -112 10 -24 82 36 31 84 -98 57 94 31 -11 127 -30 22 1
000060 da 32 6a 15 ed ac 15 36 59 32 06 05 25 ab 43 0c
       -38 50 106 21 -19 -84 21 54 89 50 6 5 37 -85 67 12
000070 bb 05 c1 08 27 3e 13 e8 88 30 3f dd 6b 15 73 37
       -69 5 -63 8 39 62 19 -24 -120 48 63 -35 107 21 115 55
000080 00 29 7f 25 f3 bf d4 15 7f 17 15 14 49 cc 1c 14
       0 41 127 37 -13 -65 -44 21 127 23 21 20 73 -52 28 20
000090 d2 0b fb 4b ca 43 17 92 a6 4a f9 b4 61 a1 25 d1
       -46 11 -5 75 -54 67 23 -110 -90 74 -7 -76 97 -95 37 -47
0000a0 3c 37 48 f9 df 81 ff 16 5f 04 f2 2c f7 81 09 f3
       60 55 72 -7 -33 -127 -1 22 95 4 -14 44 -9 -127 9 -13
0000b0 66 02 4d 43 d3 9a ea 10 ed 19 d0 1c 30 d9 4b 2b
       102 2 77 67 -45 -102 -22 16 -19 25 -48 28 48 -39 75 43
0000c0 20 7a 53 00 87 8a 24 2a 6b d2 ff 68 46 15 26 eb
       32 122 83 0 -121 -118 36 42 107 -46 -1 104 70 21 38 -21
0000d0 62 e7 1d 2e 0d 43 cd 9f 46 36 bf c8 0f 08 04 38
       98 -25 29 46 13 67 -51 -97 70 54 -65 -56 15 8 4 56
0000e0 3f 6a 33 2c 81 e1 46 66 e8 ad b5 7f 81 cb f1 a9
       63 106 51 44 -127 -31 70 102 -24 -83 -75 127 -127 -53 -15 -87
0000f0 73 9d 3c 63 e2 64 da 81 3d 3e c2 bf 95 d3 e8 7f
       115 -99 60 99 -30 100 -38 -127 61 62 -62 -65 -107 -45 -24 127

tfl.pseudo_qconst13 i1 [64, 1, 1, 64]
000000 18 d4 1d 0d 2f aa 59 e1 e9 b0 11 ba 1d 36 c7 d1
       24 -44 29 13 47 -86 89 -31 -23 -80 17 -70 29 54 -57 -47
000010 f4 01 2b e1 d0 d1 e9 99 0b 19 c8 36 3f 03 e0 09
       -12 1 43 -31 -48 -47 -23 -103 11 25 -56 54 63 3 -32 9
000020 e1 fd aa f3 d2 7f c9 ff c1 19 c3 41 f2 3c f1 c7
       -31 -3 -86 -13 -46 127 -55 -1 -63 25 -61 65 -14 60 -15 -57
000030 e6 e6 2e da 55 17 9b 0e dd 17 fa cc ea 0b f7 f5
       -26 -26 46 -38 85 23 -101 14 -35 23 -6 -52 -22 11 -9 -11
000040 c2 ec e3 cc ee 1b c5 a6 09 f4 23 4e 95 f8 12 e8
       -62 -20 -29 -52 -18 27 -59 -90 9 -12 35 78 -107 -8 18 -24
000050 27 22 e0 03 03 07 f8 f4 37 2a 50 51 d6 d5 c5 f3
       39 34 -32 3 3 7 -8 -12 55 42 80 81 -42 -43 -59 -13
000060 fd 38 c7 23 0f 1d e2 5b d0 a8 3b d7 21 fd 1b 7f
       -3 56 -57 35 15 29 -30 91 -48 -88 59 -41 33 -3 27 127
000070 f5 06 b8 6d ec 10 0a b0 dc d2 38 33 be 05 16 f0
       -11 6 -72 109 -20 16 10 -80 -36 -46 56 51 -66 5 22 -16
000080 e4 ff f0 45 e9 c1 0a 1d c8 b4 da 32 1b 17 7f 3e
       -28 -1 -16 69 -23 -63 10 29 -56 -76 -38 50 27 23 127 62
000090 21 c8 0b 9b 12 c1 29 ef d2 4c 2d b1 10 05 11 f2
       33 -56 11 -101 18 -63 41 -17 -46 76 45 -79 16 5 17 -14
0000a0 22 e6 0a fc e1 c0 ff 7a 10 ef b8 26 04 15 16 de
       34 -26 10 -4 -31 -64 -1 122 16 -17 -72 38 4 21 22 -34
0000b0 3f 20 da 1f 63 fa 4e 0e 19 15 35 12 e8 e3 0d 0a
       63 32 -38 31 99 -6 78 14 25 21 53 18 -24 -29 13 10
0000c0 ef 04 f5 2c 14 f9 f2 d5 e0 34 34 01 15 c6 ad d1
       -17 4 -11 44 20 -7 -14 -43 -32 52 52 1 21 -58 -83 -47
0000d0 c0 11 ef 09 be e5 08 03 b5 1c c1 37 10 d6 10 cf
       -64 17 -17 9 -66 -27 8 3 -75 28 -63 55 16 -42 16 -49
0000e0 09 f8 17 10 fb 1a 29 81 18 c4 de ee d5 09 13 11
       9 -8 23 16 -5 26 41 -127 24 -60 -34 -18 -43 9 19 17
0000f0 f3 18 03 c5 0b 2e f1 25 11 25 1c 1c f7 14 27 03
       -13 24 3 -59 11 46 -15 37 17 37 28 28 -9 20 39 3

tfl.pseudo_qconst15 i1 [1, 11, 1, 32]
000000 9a 57 fe 18 c0 fe b9 c1 4d 7f 85 fc 7f 7f 81 38
       -102 87 -2 24 -64 -2 -71 -63 77 127 -123 -4 127 127 -127 56
000010 c9 a2 49 fd 5c 7f e4 f9 21 ec 81 62 7c f9 69 7c
       -55 -94 73 -3 92 127 -28 -7 33 -20 -127 98 124 -7 105 124
000020 e5 4e a5 28 a8 f6 b3 f6 e7 14 c7 e3 19 35 c0 7f
       -27 78 -91 40 -88 -10 -77 -10 -25 20 -57 -29 25 53 -64 127
000030 9f b8 41 e9 5f 19 da 06 05 d9 8f 16 7f 0d 7f 32
       -97 -72 65 -23 95 25 -38 6 5 -39 -113 22 127 13 127 50
000040 1e 2d 81 33 9b f8 81 9f a6 f5 ed 17 12 06 a0 4c
       30 45 -127 51 -101 -8 -127 -97 -90 -11 -19 23 18 6 -96 76
000050 bc 5b 81 0e 13 28 dd dc 16 f4 f6 34 6a 39 63 0a
       -68 91 -127 14 19 40 -35 -36 22 -12 -10 52 106 57 99 10
000060 09 6e a8 57 1a d0 a1 7d 81 d6 26 13 e7 c8 bc 56
       9 110 -88 87 26 -48 -95 125 -127 -42 38 19 -25 -56 -68 86
000070 af 2f 98 e8 f7 1d cf 81 7f b0 15 7f 41 39 41 39
       -81 47 -104 -24 -9 29 -49 -127 127 -80 21 127 65 57 65 57
000080 09 7f d6 71 51 de 28 77 aa c5 0f d7 a4 a6 28 20
       9 127 -42 113 81 -34 40 119 -86 -59 15 -41 -92 -90 40 32
000090 bc e9 8b 2d e5 2c ba 8d 34 07 10 55 57 3e 10 48
       -68 -23 -117 45 -27 44 -70 -115 52 7 16 85 87 62 16 72
0000a0 d5 68 8d 7f 70 d5 28 e1 fe f1 2b 13 8d b1 2f 40
       -43 104 -115 127 112 -43 40 -31 -2 -15 43 19 -115 -79 47 64
0000b0 dc 1d f6 11 c8 f6 ed b7 b2 81 ed 4d 2a 46 24 11
       -36 29 -10 17 -56 -10 -19 -73 -78 -127 -19 77 42 70 36 17
0000c0 81 20 c6 50 7f 0d 64 81 d4 15 3d bf 94 82 3f 71
       -127 32 -58 80 127 13 100 -127 -44 21 61 -65 -108 -126 63 113
0000d0 f5 7f a0 68 e3 f5 2b 33 e2 b8 fb 40 02 4d 13 fb
       -11 127 -96 104 -29 -11 43 51 -30 -72 -5 64 2 77 19 -5
0000e0 cb 6d 0a 4c 08 17 37 df 55 fa ff 00 a5 d6 40 e1
       -53 109 10 76 8 23 55 -33 85 -6 -1 0 -91 -42 64 -31
0000f0 fa 07 cf 59 00 dc 6e f8 52 f3 12 0e f5 cb 01 eb
       -6 7 -49 89 0 -36 110 -8 82 -13 18 14 -11 -53 1 -21

tfl.pseudo_qconst17 i1 [1, 7, 1, 32]
000000 f4 7b f9 06 b5 b7 bd 6e b8 81 90 2d ad c9 f7 c8
       -12 123 -7 6 -75 -73 -67 110 -72 -127 -112 45 -83 -55 -9 -56
000010 20 c0 81 bf 65 6f 84 e1 4a bf dc 91 49 61 ce 35
       32 -64 -127 -65 101 111 -124 -31 74 -65 -36 -111 73 97 -50 53
000020 3d ef 3a c0 0a 0c a3 07 d5 ba ad 0b da 7f fe 9a
       61 -17 58 -64 10 12 -93 7 -43 -70 -83 11 -38 127 -2 -102
000030 da 1f c6 0f 5a 71 8d 81 2c 81 7f c8 58 22 81 7f
       -38 31 -58 15 90 113 -115 -127 44 -127 127 -56 88 34 -127 127
000040 fd 81 24 81 3b 10 f1 24 26 eb a5 22 94 6e b1 c0
       -3 -127 36 -127 59 16 -15 36 38 -21 -91 34 -108 110 -79 -64
000050 da 0a a0 b4 6b d8 c4 a5 7f c9 17 0d 10 7f 9c 2b
       -38 10 -96 -76 107 -40 -60 -91 127 -55 23 13 16 127 -100 43
000060 ce 47 1b 9b 70 81 01 e6 81 eb d3 a3 84 3f e1 1b
       -50 71 27 -101 112 -127 1 -26 -127 -21 -45 -93 -124 63 -31 27
000070 03 19 05 05 0f 06 98 04 12 e8 a5 75 7f 13 d6 cb
       3 25 5 5 15 6 -104 4 18 -24 -91 117 127 19 -42 -53
000080 19 f9 d0 ef 2b f2 b0 b6 a3 bb 81 94 81 5b 59 39
       25 -7 -48 -17 43 -14 -80 -74 -93 -69 -127 -108 -127 91 89 57
000090 6f 64 4d e1 7f 81 81 11 23 16 12 53 f7 9e 0b fa
       111 100 77 -31 127 -127 -127 17 35 22 18 83 -9 -98 11 -6
0000a0 81 21 2e d3 81 34 36 a1 39 9f cc db 39 2f 7e 7f
       -127 33 46 -45 -127 52 54 -95 57 -97 -52 -37 57 47 126 127
0000b0 76 60 19 ce 16 cd d5 03 f6 fe 35 7f b5 c5 30 d3
       118 96 25 -50 22 -51 -43 3 -10 -2 53 127 -75 -59 48 -45
0000c0 ae 0c 7f f0 fb 85 7f 81 18 96 d1 7f 27 1b 7f 6a
       -82 12 127 -16 -5 -123 127 -127 24 -106 -47 127 39 27 127 106
0000d0 7f 7f 48 81 52 62 83 39 0b 30 1e ca 08 98 47 f9
       127 127 72 -127 82 98 -125 57 11 48 30 -54 8 -104 71 -7

tfl.pseudo_qconst19 i1 [64, 1, 1, 32]
000000 15 c3 0b e5 7f 19 93 c4 01 0a 0d ed da 11 fe 0b
       21 -61 11 -27 127 25 -109 -60 1 10 13 -19 -38 17 -2 11
000010 88 ff 55 c9 ea e2 ea 0c 1d 14 ec fd 39 bc e2 f0
       -120 -1 85 -55 -22 -30 -22 12 29 20 -20 -3 57 -68 -30 -16
000020 24 f0 c6 ec de 34 79 7d 03 81 a8 c2 7c 8b 1e 43
       36 -16 -58 -20 -34 52 121 125 3 -127 -88 -62 124 -117 30 67
000030 c6 21 a3 73 c3 e3 bf 5f e4 33 34 9a fa 04 02 48
       -58 33 -93 115 -61 -29 -65 95 -28 51 52 -102 -6 4 2 72
000040 0e bf cd 8e bf 00 38 0c cc a7 f9 0c 6d 1e 1d 2e
       14 -65 -51 -114 -65 0 56 12 -52 -89 -7 12 109 30 29 46
000050 fb 19 22 96 34 33 bb 62 7f c5 38 1d d3 d3 02 66
       -5 25 34 -106 52 51 -69 98 127 -59 56 29 -45 -45 2 102
000060 0c 1d 04 f0 45 02 d6 de 09 07 1f 23 c4 7f 0a 01
       12 29 4 -16 69 2 -42 -34 9 7 31 35 -60 127 10 1
000070 3e 22 e8 12 16 d6 29 0d d7 3c f9 1a d8 f5 22 02
       62 34 -24 18 22 -42 41 13 -41 60 -7 26 -40 -11 34 2
000080 f5 f8 2e e5 38 03 bb 11 c1 4b 1a 18 37 a0 b5 ca
       -11 -8 46 -27 56 3 -69 17 -63 75 26 24 55 -96 -75 -54
000090 a0 cb e5 7c e0 57 e0 6b 9f 2a ea f7 7f 0f bf 3b
       -96 -53 -27 124 -32 87 -32 107 -97 42 -22 -9 127 15 -65 59
0000a0 ee da 24 22 7f 12 0a 1c f0 39 c3 ff 0e 4f 0d d5
       -18 -38 36 34 127 18 10 28 -16 57 -61 -1 14 79 13 -43
0000b0 dc 25 d1 d2 01 19 fc 19 d1 f2 20 ba 0c 16 c8 ec
       -36 37 -47 -46 1 25 -4 25 -47 -14 32 -70 12 22 -56 -20
0000c0 39 fb d7 90 ce b9 1c f0 ee 08 10 c2 e1 b1 03 3e
       57 -5 -41 -112 -50 -71 28 -16 -18 8 16 -62 -31 -79 3 62
0000d0 03 33 0e 81 99 8f 28 25 f2 aa dc f7 77 cd a2 cb
       3 51 14 -127 -103 -113 40 37 -14 -86 -36 -9 119 -51 -94 -53
0000e0 bd fb 14 02 00 03 fa 32 e9 d1 a8 ec fd 01 f8 37
       -67 -5 20 2 0 3 -6 50 -23 -47 -88 -20 -3 1 -8 55
0000f0 34 1f 1b f3 f0 7f b8 e6 fe 0e 1d 0b ed e5 0f 06
       52 31 27 -13 -16 127 -72 -26 -2 14 29 11 -19 -27 15 6

tfl.pseudo_qconst21 i1 [1, 5, 1, 32]
000000 00 7f 01 d0 81 fe 3a c3 54 89 81 66 1e 64 7b a8
       0 127 1 -48 -127 -2 58 -61 84 -119 -127 102 30 100 123 -88
000010 7f 6f d2 7f 24 60 8b 1e 21 05 92 7f 48 64 81 0f
       127 111 -46 127 36 96 -117 30 33 5 -110 127 72 100 -127 15
000020 ae 6e 31 de 16 df 36 84 7f b1 c7 58 31 49 67 77
       -82 110 49 -34 22 -33 54 -124 127 -79 -57 88 49 73 103 119
000030 59 3d b8 43 0b 7f 06 d5 33 b2 59 46 7f fe c3 2e
       89 61 -72 67 11 127 6 -43 51 -78 89 70 127 -2 -61 46
000040 81 0a 7f c8 7c 1f 36 aa fc 00 f3 03 df 81 c1 81
       -127 10 127 -56 124 31 54 -86 -4 0 -13 3 -33 -127 -63 -127
000050 16 ea b8 42 96 65 b5 20 ef 1e 81 ca 37 81 86 57
       22 -22 -72 66 -106 101 -75 32 -17 30 -127 -54 55 -127 -122 87
000060 fc dd 18 e1 eb a3 21 81 36 08 25 81 7f fa 94 92
       -4 -35 24 -31 -21 -93 33 -127 54 8 37 -127 127 -6 -108 -110
000070 16 81 23 64 81 68 81 c9 81 7f 30 9a 74 86 d3 0d
       22 -127 35 100 -127 104 -127 -55 -127 127 48 -102 116 -122 -45 13
000080 5b 8e 7c 81 f4 81 81 2c 10 7f 7c d0 5c 4c 81 34
       91 -114 124 -127 -12 -127 -127 44 16 127 124 -48 92 76 -127 52
000090 aa fc 7f 31 c0 07 82 81 9f 3b e9 ac 5f ef 2a 7f
       -86 -4 127 49 -64 7 -126 -127 -97 59 -23 -84 95 -17 42 127

tfl.pseudo_qconst23 i1 [32, 5, 1, 40]
000000 52 1d f9 01 ff 0e e3 fe fb 0a eb 2a 2d 1e 31 11
       82 29 -7 1 -1 14 -29 -2 -5 10 -21 42 45 30 49 17
000010 07 ff 00 f0 c6 c4 f5 e7 fb 23 03 f6 07 2a ff 04
       7 -1 0 -16 -58 -60 -11 -25 -5 35 3 -10 7 42 -1 4
000020 e6 f2 0c d2 fe b9 05 2d 73 2c 25 3e e4 fd 0b 24
       -26 -14 12 -46 -2 -71 5 45 115 44 37 62 -28 -3 11 36
000030 04 dd e3 2b 55 37 50 14 0b c6 f6 d3 cc d1 08 e4
       4 -35 -29 43 85 55 80 20 11 -58 -10 -45 -52 -47 8 -28
000040 ca 02 e3 ea dc 18 2c 07 23 f8 15 d3 02 e9 00 1e
       -54 2 -29 -22 -36 24 44 7 35 -8 21 -45 2 -23 0 30
000050 5f 63 1f 2d f3 2e fc 00 04 f8 03 27 48 31 26 07
       95 99 31 45 -13 46 -4 0 4 -8 3 39 72 49 38 7
000060 f4 f4 ed fb ca 00 03 d5 e1 d9 f2 fe e6 e5 21 00
       -12 -12 -19 -5 -54 0 3 -43 -31 -39 -14 -2 -26 -27 33 0
000070 f1 ea f5 e0 16 d2 11 5a 7d 61 4c 53 38 29 1d 0b
       -15 -22 -11 -32 22 -46 17 90 125 97 76 83 56 41 29 11
000080 f4 f6 e3 02 3e 0d 18 fe f8 ea 03 09 de 21 ea c1
       -12 -10 -29 2 62 13 24 -2 -8 -22 3 9 -34 33 -22 -63
000090 b3 ef ca dd e6 ec e3 03 ea d5 14 06 24 e2 2d 2b
       -77 -17 -54 -35 -26 -20 -29 3 -22 -43 20 6 36 -30 45 43
0000a0 6c 7f 2c 29 1b fd f4 ef fc 0d f5 03 16 31 19 d9
       108 127 44 41 27 -3 -12 -17 -4 13 -11 3 22 49 25 -39
0000b0 ef fa 01 01 fd 0a f2 d1 eb d3 dc d5 c9 dc c4 d9
       -17 -6 1 1 -3 10 -14 -47 -21 -45 -36 -43 -55 -36 -60 -39
0000c0 e4 cb f8 f0 f0 e3 e9 e9 ce e5 fe ed f7 c3 fe cd
       -28 -53 -8 -16 -16 -29 -23 -23 -50 -27 -2 -19 -9 -61 -2 -51
0000d0 24 e7 f4 1b 0a f5 1d f9 39 05 27 2f 46 04 fe 17
       36 -25 -12 27 10 -11 29 -7 57 5 39 47 70 4 -2 23
0000e0 09 c3 c4 c6 e3 06 d7 f3 10 ef 40 22 22 e4 26 05
       9 -61 -60 -58 -29 6 -41 -13 16 -17 64 34 34 -28 38 5
0000f0 f2 1d cc d2 c9 ee 08 01 2d ec 11 0d e5 fa fa 00
       -14 29 -52 -46 -55 -18 8 1 45 -20 17 13 -27 -6 -6 0

tfl.pseudo_qconst24 i1 [1, 22, 1, 64] scale=0.0394216 zero_point=-128
000000 80 80 80 80 80 80 80 80 80 80 80 80 80 80 80 80
       0.0 0.0 0.0 0.0 0.0 0.0 0.0 0.0 0.0 0.0 0.0 0.0 0.0 0.0 0.0 0.0
000010 80 80 80 80 80 80 80 80 80 80 80 80 80 80 80 80
       0.0 0.0 0.0 0.0 0.0 0.0 0.0 0.0 0.0 0.0 0.0 0.0 0.0 0.0 0.0 0.0
000020 80 80 80 80 80 80 80 80 80 80 80 80 80 80 80 80
       0.0 0.0 0.0 0.0 0.0 0.0 0.0 0.0 0.0 0.0 0.0 0.0 0.0 0.0 0.0 0.0
000030 80 80 80 80 80 80 80 80 80 80 80 80 80 80 80 80
       0.0 0.0 0.0 0.0 0.0 0.0 0.0 0.0 0.0 0.0 0.0 0.0 0.0 0.0 0.0 0.0
000040 80 80 80 80 80 80 80 80 80 80 80 80 80 80 80 80
       0.0 0.0 0.0 0.0 0.0 0.0 0.0 0.0 0.0 0.0 0.0 0.0 0.0 0.0 0.0 0.0
000050 80 80 80 80 80 80 80 80 80 80 80 80 80 80 80 80
       0.0 0.0 0.0 0.0 0.0 0.0 0.0 0.0 0.0 0.0 0.0 0.0 0.0 0.0 0.0 0.0
000060 80 80 80 80 80 80 80 80 80 80 80 80 80 80 80 80
       0.0 0.0 0.0 0.0 0.0 0.0 0.0 0.0 0.0 0.0 0.0 0.0 0.0 0.0 0.0 0.0
000070 80 80 80 80 80 80 80 80 80 80 80 80 80 80 80 80
       0.0 0.0 0.0 0.0 0.0 0.0 0.0 0.0 0.0 0.0 0.0 0.0 0.0 0.0 0.0 0.0
000080 80 80 80 80 80 80 80 80 80 80 80 80 80 80 80 80
       0.0 0.0 0.0 0.0 0.0 0.0 0.0 0.0 0.0 0.0 0.0 0.0 0.0 0.0 0.0 0.0
000090 80 80 80 80 80 80 80 80 80 80 80 80 80 80 80 80
       0.0 0.0 0.0 0.0 0.0 0.0 0.0 0.0 0.0 0.0 0.0 0.0 0.0 0.0 0.0 0.0
0000a0 80 80 80 80 80 80 80 80 80 80 80 80 80 80 80 80
       0.0 0.0 0.0 0.0 0.0 0.0 0.0 0.0 0.0 0.0 0.0 0.0 0.0 0.0 0.0 0.0
0000b0 80 80 80 80 80 80 80 80 80 80 80 80 80 80 80 80
       0.0 0.0 0.0 0.0 0.0 0.0 0.0 0.0 0.0 0.0 0.0 0.0 0.0 0.0 0.0 0.0
0000c0 80 80 80 80 80 80 80 80 80 80 80 80 80 80 80 80
       0.0 0.0 0.0 0.0 0.0 0.0 0.0 0.0 0.0 0.0 0.0 0.0 0.0 0.0 0.0 0.0
0000d0 80 80 80 80 80 80 80 80 80 80 80 80 80 80 80 80
       0.0 0.0 0.0 0.0 0.0 0.0 0.0 0.0 0.0 0.0 0.0 0.0 0.0 0.0 0.0 0.0
0000e0 80 80 80 80 80 80 80 80 80 80 80 80 80 80 80 80
       0.0 0.0 0.0 0.0 0.0 0.0 0.0 0.0 0.0 0.0 0.0 0.0 0.0 0.0 0.0 0.0
0000f0 80 80 80 80 80 80 80 80 80 80 80 80 80 80 80 80
       0.0 0.0 0.0 0.0 0.0 0.0 0.0 0.0 0.0 0.0 0.0 0.0 0.0 0.0 0.0 0.0

tfl.pseudo_qconst25 i1 [1, 36, 1, 64] scale=0.023878057 zero_point=-128
000000 80 80 80 80 80 80 80 80 80 80 80 80 80 80 80 80
       0.0 0.0 0.0 0.0 0.0 0.0 0.0 0.0 0.0 0.0 0.0 0.0 0.0 0.0 0.0 0.0
000010 80 80 80 80 80 80 80 80 80 80 80 80 80 80 80 80
       0.0 0.0 0.0 0.0 0.0 0.0 0.0 0.0 0.0 0.0 0.0 0.0 0.0 0.0 0.0 0.0
000020 80 80 80 80 80 80 80 80 80 80 80 80 80 80 80 80
       0.0 0.0 0.0 0.0 0.0 0.0 0.0 0.0 0.0 0.0 0.0 0.0 0.0 0.0 0.0 0.0
000030 80 80 80 80 80 80 80 80 80 80 80 80 80 80 80 80
       0.0 0.0 0.0 0.0 0.0 0.0 0.0 0.0 0.0 0.0 0.0 0.0 0.0 0.0 0.0 0.0
000040 80 80 80 80 80 80 80 80 80 80 80 80 80 80 80 80
       0.0 0.0 0.0 0.0 0.0 0.0 0.0 0.0 0.0 0.0 0.0 0.0 0.0 0.0 0.0 0.0
000050 80 80 80 80 80 80 80 80 80 80 80 80 80 80 80 80
       0.0 0.0 0.0 0.0 0.0 0.0 0.0 0.0 0.0 0.0 0.0 0.0 0.0 0.0 0.0 0.0
000060 80 80 80 80 80 80 80 80 80 80 80 80 80 80 80 80
       0.0 0.0 0.0 0.0 0.0 0.0 0.0 0.0 0.0 0.0 0.0 0.0 0.0 0.0 0.0 0.0
000070 80 80 80 80 80 80 80 80 80 80 80 80 80 80 80 80
       0.0 0.0 0.0 0.0 0.0 0.0 0.0 0.0 0.0 0.0 0.0 0.0 0.0 0.0 0.0 0.0
000080 80 80 80 80 80 80 80 80 80 80 80 80 80 80 80 80
       0.0 0.0 0.0 0.0 0.0 0.0 0.0 0.0 0.0 0.0 0.0 0.0 0.0 0.0 0.0 0.0
000090 80 80 80 80 80 80 80 80 80 80 80 80 80 80 80 80
       0.0 0.0 0.0 0.0 0.0 0.0 0.0 0.0 0.0 0.0 0.0 0.0 0.0 0.0 0.0 0.0
0000a0 80 80 80 80 80 80 80 80 80 80 80 80 80 80 80 80
       0.0 0.0 0.0 0.0 0.0 0.0 0.0 0.0 0.0 0.0 0.0 0.0 0.0 0.0 0.0 0.0
0000b0 80 80 80 80 80 80 80 80 80 80 80 80 80 80 80 80
       0.0 0.0 0.0 0.0 0.0 0.0 0.0 0.0 0.0 0.0 0.0 0.0 0.0 0.0 0.0 0.0
0000c0 80 80 80 80 80 80 80 80 80 80 80 80 80 80 80 80
       0.0 0.0 0.0 0.0 0.0 0.0 0.0 0.0 0.0 0.0 0.0 0.0 0.0 0.0 0.0 0.0
0000d0 80 80 80 80 80 80 80 80 80 80 80 80 80 80 80 80
       0.0 0.0 0.0 0.0 0.0 0.0 0.0 0.0 0.0 0.0 0.0 0.0 0.0 0.0 0.0 0.0
0000e0 80 80 80 80 80 80 80 80 80 80 80 80 80 80 80 80
       0.0 0.0 0.0 0.0 0.0 0.0 0.0 0.0 0.0 0.0 0.0 0.0 0.0 0.0 0.0 0.0
0000f0 80 80 80 80 80 80 80 80 80 80 80 80 80 80 80 80
       0.0 0.0 0.0 0.0 0.0 0.0 0.0 0.0 0.0 0.0 0.0 0.0 0.0 0.0 0.0 0.0

tfl.pseudo_qconst26 i1 [1, 3, 1, 40] scale=0.101960786 zero_point=-128
000000 80 80 80 80 80 80 80 80 80 80 80 80 80 80 80 80
       0.0 0.0 0.0 0.0 0.0 0.0 0.0 0.0 0.0 0.0 0.0 0.0 0.0 0.0 0.0 0.0
000010 80 80 80 80 80 80 80 80 80 80 80 80 80 80 80 80
       0.0 0.0 0.0 0.0 0.0 0.0 0.0 0.0 0.0 0.0 0.0 0.0 0.0 0.0 0.0 0.0
000020 80 80 80 80 80 80 80 80 80 80 80 80 80 80 80 80
       0.0 0.0 0.0 0.0 0.0 0.0 0.0 0.0 0.0 0.0 0.0 0.0 0.0 0.0 0.0 0.0
000030 80 80 80 80 80 80 80 80 80 80 80 80 80 80 80 80
       0.0 0.0 0.0 0.0 0.0 0.0 0.0 0.0 0.0 0.0 0.0 0.0 0.0 0.0 0.0 0.0
000040 80 80 80 80 80 80 80 80 80 80 80 80 80 80 80 80
       0.0 0.0 0.0 0.0 0.0 0.0 0.0 0.0 0.0 0.0 0.0 0.0 0.0 0.0 0.0 0.0
000050 80 80 80 80 80 80 80 80 80 80 80 80 80 80 80 80
       0.0 0.0 0.0 0.0 0.0 0.0 0.0 0.0 0.0 0.0 0.0 0.0 0.0 0.0 0.0 0.0
000060 80 80 80 80 80 80 80 80 80 80 80 80 80 80 80 80
       0.0 0.0 0.0 0.0 0.0 0.0 0.0 0.0 0.0 0.0 0.0 0.0 0.0 0.0 0.0 0.0
000070 80 80 80 80 80 80 80 80
       0.0 0.0 0.0 0.0 0.0 0.0 0.0 0.0

tfl.pseudo_qconst27 i1 [1, 4, 1, 32] scale=1.7526222 zero_point=-128
000000 80 80 80 80 80 80 80 80 80 80 80 80 80 80 80 80
       0.0 0.0 0.0 0.0 0.0 0.0 0.0 0.0 0.0 0.0 0.0 0.0 0.0 0.0 0.0 0.0
000010 80 80 80 80 80 80 80 80 80 80 80 80 80 80 80 80
       0.0 0.0 0.0 0.0 0.0 0.0 0.0 0.0 0.0 0.0 0.0 0.0 0.0 0.0 0.0 0.0
000020 80 80 80 80 80 80 80 80 80 80 80 80 80 80 80 80
       0.0 0.0 0.0 0.0 0.0 0.0 0.0 0.0 0.0 0.0 0.0 0.0 0.0 0.0 0.0 0.0
000030 80 80 80 80 80 80 80 80 80 80 80 80 80 80 80 80
       0.0 0.0 0.0 0.0 0.0 0.0 0.0 0.0 0.0 0.0 0.0 0.0 0.0 0.0 0.0 0.0
000040 80 80 80 80 80 80 80 80 80 80 80 80 80 80 80 80
       0.0 0.0 0.0 0.0 0.0 0.0 0.0 0.0 0.0 0.0 0.0 0.0 0.0 0.0 0.0 0.0
000050 80 80 80 80 80 80 80 80 80 80 80 80 80 80 80 80
       0.0 0.0 0.0 0.0 0.0 0.0 0.0 0.0 0.0 0.0 0.0 0.0 0.0 0.0 0.0 0.0
000060 80 80 80 80 80 80 80 80 80 80 80 80 80 80 80 80
       0.0 0.0 0.0 0.0 0.0 0.0 0.0 0.0 0.0 0.0 0.0 0.0 0.0 0.0 0.0 0.0
000070 80 80 80 80 80 80 80 80 80 80 80 80 80 80 80 80
       0.0 0.0 0.0 0.0 0.0 0.0 0.0 0.0 0.0 0.0 0.0 0.0 0.0 0.0 0.0 0.0

tfl.pseudo_qconst28 i1 [1, 10, 1, 64] scale=0.045367356 zero_point=-128
000000 80 80 80 80 80 80 80 80 80 80 80 80 80 80 80 80
       0.0 0.0 0.0 0.0 0.0 0.0 0.0 0.0 0.0 0.0 0.0 0.0 0.0 0.0 0.0 0.0
000010 80 80 80 80 80 80 80 80 80 80 80 80 80 80 80 80
       0.0 0.0 0.0 0.0 0.0 0.0 0.0 0.0 0.0 0.0 0.0 0.0 0.0 0.0 0.0 0.0
000020 80 80 80 80 80 80 80 80 80 80 80 80 80 80 80 80
       0.0 0.0 0.0 0.0 0.0 0.0 0.0 0.0 0.0 0.0 0.0 0.0 0.0 0.0 0.0 0.0
000030 80 80 80 80 80 80 80 80 80 80 80 80 80 80 80 80
       0.0 0.0 0.0 0.0 0.0 0.0 0.0 0.0 0.0 0.0 0.0 0.0 0.0 0.0 0.0 0.0
000040 80 80 80 80 80 80 80 80 80 80 80 80 80 80 80 80
       0.0 0.0 0.0 0.0 0.0 0.0 0.0 0.0 0.0 0.0 0.0 0.0 0.0 0.0 0.0 0.0
000050 80 80 80 80 80 80 80 80 80 80 80 80 80 80 80 80
       0.0 0.0 0.0 0.0 0.0 0.0 0.0 0.0 0.0 0.0 0.0 0.0 0.0 0.0 0.0 0.0
000060 80 80 80 80 80 80 80 80 80 80 80 80 80 80 80 80
       0.0 0.0 0.0 0.0 0.0 0.0 0.0 0.0 0.0 0.0 0.0 0.0 0.0 0.0 0.0 0.0
000070 80 80 80 80 80 80 80 80 80 80 80 80 80 80 80 80
       0.0 0.0 0.0 0.0 0.0 0.0 0.0 0.0 0.0 0.0 0.0 0.0 0.0 0.0 0.0 0.0
000080 80 80 80 80 80 80 80 80 80 80 80 80 80 80 80 80
       0.0 0.0 0.0 0.0 0.0 0.0 0.0 0.0 0.0 0.0 0.0 0.0 0.0 0.0 0.0 0.0
000090 80 80 80 80 80 80 80 80 80 80 80 80 80 80 80 80
       0.0 0.0 0.0 0.0 0.0 0.0 0.0 0.0 0.0 0.0 0.0 0.0 0.0 0.0 0.0 0.0
0000a0 80 80 80 80 80 80 80 80 80 80 80 80 80 80 80 80
       0.0 0.0 0.0 0.0 0.0 0.0 0.0 0.0 0.0 0.0 0.0 0.0 0.0 0.0 0.0 0.0
0000b0 80 80 80 80 80 80 80 80 80 80 80 80 80 80 80 80
       0.0 0.0 0.0 0.0 0.0 0.0 0.0 0.0 0.0 0.0 0.0 0.0 0.0 0.0 0.0 0.0
0000c0 80 80 80 80 80 80 80 80 80 80 80 80 80 80 80 80
       0.0 0.0 0.0 0.0 0.0 0.0 0.0 0.0 0.0 0.0 0.0 0.0 0.0 0.0 0.0 0.0
0000d0 80 80 80 80 80 80 80 80 80 80 80 80 80 80 80 80
       0.0 0.0 0.0 0.0 0.0 0.0 0.0 0.0 0.0 0.0 0.0 0.0 0.0 0.0 0.0 0.0
0000e0 80 80 80 80 80 80 80 80 80 80 80 80 80 80 80 80
       0.0 0.0 0.0 0.0 0.0 0.0 0.0 0.0 0.0 0.0 0.0 0.0 0.0 0.0 0.0 0.0
0000f0 80 80 80 80 80 80 80 80 80 80 80 80 80 80 80 80
       0.0 0.0 0.0 0.0 0.0 0.0 0.0 0.0 0.0 0.0 0.0 0.0 0.0 0.0 0.0 0.0

tfl.pseudo_qconst29 i1 [1, 14, 1, 64] scale=0.050458606 zero_point=-128
000000 80 80 80 80 80 80 80 80 80 80 80 80 80 80 80 80
       0.0 0.0 0.0 0.0 0.0 0.0 0.0 0.0 0.0 0.0 0.0 0.0 0.0 0.0 0.0 0.0
000010 80 80 80 80 80 80 80 80 80 80 80 80 80 80 80 80
       0.0 0.0 0.0 0.0 0.0 0.0 0.0 0.0 0.0 0.0 0.0 0.0 0.0 0.0 0.0 0.0
000020 80 80 80 80 80 80 80 80 80 80 80 80 80 80 80 80
       0.0 0.0 0.0 0.0 0.0 0.0 0.0 0.0 0.0 0.0 0.0 0.0 0.0 0.0 0.0 0.0
000030 80 80 80 80 80 80 80 80 80 80 80 80 80 80 80 80
       0.0 0.0 0.0 0.0 0.0 0.0 0.0 0.0 0.0 0.0 0.0 0.0 0.0 0.0 0.0 0.0
000040 80 80 80 80 80 80 80 80 80 80 80 80 80 80 80 80
       0.0 0.0 0.0 0.0 0.0 0.0 0.0 0.0 0.0 0.0 0.0 0.0 0.0 0.0 0.0 0.0
000050 80 80 80 80 80 80 80 80 80 80 80 80 80 80 80 80
       0.0 0.0 0.0 0.0 0.0 0.0 0.0 0.0 0.0 0.0 0.0 0.0 0.0 0.0 0.0 0.0
000060 80 80 80 80 80 80 80 80 80 80 80 80 80 80 80 80
       0.0 0.0 0.0 0.0 0.0 0.0 0.0 0.0 0.0 0.0 0.0 0.0 0.0 0.0 0.0 0.0
000070 80 80 80 80 80 80 80 80 80 80 80 80 80 80 80 80
       0.0 0.0 0.0 0.0 0.0 0.0 0.0 0.0 0.0 0.0 0.0 0.0 0.0 0.0 0.0 0.0
000080 80 80 80 80 80 80 80 80 80 80 80 80 80 80 80 80
       0.0 0.0 0.0 0.0 0.0 0.0 0.0 0.0 0.0 0.0 0.0 0.0 0.0 0.0 0.0 0.0
000090 80 80 80 80 80 80 80 80 80 80 80 80 80 80 80 80
       0.0 0.0 0.0 0.0 0.0 0.0 0.0 0.0 0.0 0.0 0.0 0.0 0.0 0.0 0.0 0.0
0000a0 80 80 80 80 80 80 80 80 80 80 80 80 80 80 80 80
       0.0 0.0 0.0 0.0 0.0 0.0 0.0 0.0 0.0 0.0 0.0 0.0 0.0 0.0 0.0 0.0
0000b0 80 80 80 80 80 80 80 80 80 80 80 80 80 80 80 80
       0.0 0.0 0.0 0.0 0.0 0.0 0.0 0.0 0.0 0.0 0.0 0.0 0.0 0.0 0.0 0.0
0000c0 80 80 80 80 80 80 80 80 80 80 80 80 80 80 80 80
       0.0 0.0 0.0 0.0 0.0 0.0 0.0 0.0 0.0 0.0 0.0 0.0 0.0 0.0 0.0 0.0
0000d0 80 80 80 80 80 80 80 80 80 80 80 80 80 80 80 80
       0.0 0.0 0.0 0.0 0.0 0.0 0.0 0.0 0.0 0.0 0.0 0.0 0.0 0.0 0.0 0.0
0000e0 80 80 80 80 80 80 80 80 80 80 80 80 80 80 80 80
       0.0 0.0 0.0 0.0 0.0 0.0 0.0 0.0 0.0 0.0 0.0 0.0 0.0 0.0 0.0 0.0
0000f0 80 80 80 80 80 80 80 80 80 80 80 80 80 80 80 80
       0.0 0.0 0.0 0.0 0.0 0.0 0.0 0.0 0.0 0.0 0.0 0.0 0.0 0.0 0.0 0.0
